policy-storage/go1_flat_novel-Aug24_13-58-37_-jitted.pt (torch, 762986 bytes, 8 tensors)

weight f4 [512, 42]
000000 44 82 ad bd b3 48 01 be 6a 5d 61 3d 96 85 95 3d
       -0.08472112 -0.12625389 0.055020727 0.0730087
000010 fe f3 e3 3d 42 a5 7b 3e 49 56 a2 be 2f 5f 4b be
       0.11130522 0.2457476 -0.31706455 -0.19860528
000020 6c 5a aa 3d 10 ce 7f bd b0 a0 35 be 38 fa 8f 3e
       0.08318028 -0.062452376 -0.17737079 0.2812059
000030 56 fb 0e 3e 45 36 db 3e 29 0e 83 bd 66 d2 00 3f
       0.13963065 0.42814842 -0.06399185 0.5032104
000040 d0 06 aa 3e 37 92 19 be 64 31 97 3d 45 47 17 be
       0.33208323 -0.14997183 0.073824674 -0.14773281
000050 14 23 84 be a1 1c 10 bf aa 3e ab 3e 7d 8f c2 3c
       -0.25808012 -0.56293684 0.33446246 0.023750061
000060 e8 f2 8a 3e 92 63 11 3e 35 b4 0a 3e 9b c7 91 bd
       0.27138448 0.1419814 0.13545306 -0.0711815
000070 df 15 c5 be 1f e7 bf bd ce 08 59 3d 51 5d 04 3d
       -0.3849325 -0.09370255 0.052986912 0.032315556
000080 97 b2 bf 3c ec 04 b6 bd 93 cb 62 bd c0 0f 2e bd
       0.023400588 -0.088876575 -0.055369925 -0.04249549
000090 1a f0 6c bd d6 39 6a bd e7 63 44 3d cc a0 0e 3d
       -0.057846166 -0.057184063 0.047946837 0.034821317
0000a0 92 b8 46 3c bc dd cf 3c 03 91 86 be 33 09 ea 3c
       0.012128966 0.025374286 -0.2628251 0.02856884
0000b0 2f d6 d3 bd 63 82 ce 3c 96 58 a0 3c f4 f3 3e 3e
       -0.10343587 0.025208658 0.019573491 0.18647748
0000c0 07 1a 9f be a6 2d a4 be c9 e7 77 3d e5 2f 26 3e
       -0.31074545 -0.32066077 0.060523782 0.16229208
0000d0 8e 80 01 3e 79 c4 02 bf 92 91 79 3e 54 72 97 3e
       0.12646696 -0.51081043 0.24371937 0.29579413
0000e0 40 43 f4 bc e3 47 93 3e 4e 14 d9 be b0 f3 c3 be
       -0.029817224 0.28765783 -0.42398304 -0.38271856
0000f0 8a d2 fa bd 1f 28 66 3c ad 30 a0 3d 93 16 f0 bd
       -0.122471884 0.014047652 0.07821784 -0.11723056
000100 ed 15 7c bc 76 cf fd 3d a6 a6 a1 be 0f 52 ba 3d
       -0.015386087 0.12393086 -0.31572455 0.09097683
000110 41 5f 8c 3c 75 b5 87 3e 85 54 03 3e a1 4f 21 be
       0.017135264 0.26505628 0.1282521 -0.15753032
000120 65 34 a6 3d f4 2c 7c 3d a8 d8 57 bd f7 dc 43 3d
       0.08115462 0.06156631 -0.052696854 0.04781815
000130 c2 72 55 bd b7 5b 92 3d fb 35 35 bd 64 90 e3 3c
       -0.052111395 0.071463995 -0.044240933 0.027778812
000140 66 e0 1c bd 9c 65 72 bd 95 7f ca bc e9 98 9d 3d
       -0.03829994 -0.059178934 -0.024719039 0.07695181
000150 47 93 e8 bd 76 d1 c7 3d 01 85 a7 3d 56 ae 0f bb
       -0.11356216 0.097567484 0.08179665 -0.002192398
000160 19 0b 9e ba 09 bf 78 be a5 04 a9 be 7f 5f e6 bd
       -0.0012057751 -0.24291624 -0.33011356 -0.11248683
000170 78 22 22 be bd d4 b5 be e8 82 0a be 4c 99 85 be
       -0.15833461 -0.3551387 -0.135265 -0.2609352
000180 13 0a 4b bf 12 e4 1d be 72 52 2c bd 56 31 ba 3d
       -0.7931225 -0.15419033 -0.042070813 0.09091441
000190 3d 63 e0 3d 90 23 35 3d bd 21 00 3d ff ff 47 bd
       0.10956428 0.04422337 0.031282175 -0.04882812
0001a0 71 6a 03 3e af e0 08 3d 10 ed eb 3d 80 5b 81 3e
       0.12833573 0.0334174 0.115198255 0.2526512
0001b0 63 96 d6 3e cb e2 1d 3c e4 22 29 3e f6 55 82 3d
       0.4191161 0.009636591 0.16517216 0.06364052
0001c0 78 76 3a 3d ec 25 83 be 69 dc 15 bc 72 5c f6 bc
       0.045523137 -0.2561487 -0.009146788 -0.030073378
0001d0 9a ba 37 3c 3b 9b 78 3c 7c 25 1a 3d ca 1c e5 ba
       0.011213923 0.015173729 0.037633404 -0.0017479893
0001e0 63 f8 28 3b 2d 0e 94 bd fc 96 5a 3d 30 24 ab bd
       0.0025782816 -0.07229266 0.053366646 -0.083565116
0001f0 49 59 b0 bc 44 20 02 3c 3f 22 83 3e ad be 80 3c
       -0.02152695 0.007942263 0.25612065 0.015715921
000200 55 2e 76 bd 63 7e ea 3d 92 35 af bc 6d e8 eb be
       -0.06010278 0.114498876 -0.021387849 -0.46075764
000210 0b 66 1a bb 0f 60 22 bb b9 0c 38 3e 8b 06 00 3e
       -0.0023559358 -0.0024776494 0.17973603 0.12502496
000220 b1 4b 13 3e 70 43 16 3e b5 fa d0 be 7c 1f 45 3d
       0.14384343 0.14674163 -0.40816274 0.04812573
000230 0f fb ff ba 24 39 cd bd fa 06 e7 3e c9 37 0d be
       -0.0019529777 -0.10020664 0.4512251 -0.13790812
000240 4b 65 02 bf 2d 4b 02 bf a8 f4 ed bd b2 59 b1 3e
       -0.5093581 -0.5089596 -0.1161893 0.34638745
000250 9d 0b 58 be e1 6c b7 be 01 53 be 3d 93 dd 6c 3c
       -0.2109818 -0.35825256 0.092931755 0.014457124
000260 12 e9 1e be 3b f6 6c 3d 33 51 6a bd 0c 29 c1 3d
       -0.15518597 0.05785201 -0.057206344 0.09431657
000270 4d 16 59 bd f9 a5 bb bd 96 cf 3f 3d 1a 9b 45 bd
       -0.052999783 -0.09162516 0.04682883 -0.04824362
000280 88 ec d0 3c df 9a d9 bd d0 2d 5d bd 5a 8b 47 bd
       0.025503412 -0.106252424 -0.05399877 -0.04871688
000290 2b 4e 87 bc b7 cd 97 3d 76 8d 3c bd ae 71 47 3d
       -0.016516766 0.07412284 -0.046033345 0.048692398
0002a0 34 5a ab 3d 09 66 98 3c 31 7b a3 bd f7 55 79 3d
       0.08366814 0.018603342 -0.07982481 0.060872998
0002b0 27 f0 02 bd 2f 16 11 be 4b 6c f3 be bc 90 87 3c
       -0.03196731 -0.14168619 -0.47543558 0.016548507
0002c0 86 5b 31 be 37 db d8 3c ca 61 da be 80 25 90 3d
       -0.1732007 0.026471717 -0.42652732 0.070384026
0002d0 1f d1 10 3d de 70 77 bd c6 bd 47 be 06 21 aa 3e
       0.035355683 -0.060410373 -0.19505987 0.3322832
0002e0 d5 3c 85 3d 31 e3 dc bd 8f 09 13 be f1 5f 93 3e
       0.065057434 -0.10785521 -0.14359115 0.28784135
0002f0 fc 76 02 bc f9 de b6 3e 16 bc ec be b5 1b c6 be
       -0.007962938 0.3571699 -0.46237248 -0.38693014
000300 2a 44 15 3d b4 ad 07 3e 78 c6 75 3e 9c e7 0f 3e
       0.03644196 0.13249856 0.24001491 0.14053196
000310 a8 9c 53 bd 87 30 64 3e 1d 83 af 3d 44 ad 47 bd
       -0.05166307 0.22284137 0.0856993 -0.048749223
000320 3f e3 af bb ae c5 0e 3d 24 ad a2 3d 50 8c 9c bb
       -0.005367666 0.03485649 0.0794318 -0.0047774687
000330 6e 15 2c bc 64 83 78 3d 69 be 3d 3c 9c d8 52 bc
       -0.010503156 0.06067218 0.011581042 -0.0128690265
000340 f7 e8 81 3d 14 bb 66 3c 35 30 c4 bd bf 57 07 3d
       0.06343263 0.014082689 -0.09579507 0.033042666
000350 23 78 93 3d 92 82 e5 3d cf cb 2e bc 52 1f af 3d
       0.07200649 0.11206545 -0.010668709 0.08550896
000360 d0 c8 55 3e 7f a3 11 3e e4 37 07 be 2f 86 82 be
       0.20877385 0.14222525 -0.13204914 -0.25493
000370 03 cc 3d bd 22 1c dc 3d 29 89 f1 bd 27 90 9c be
       -0.04633714 0.107475534 -0.11793739 -0.3057873
000380 31 e9 00 3d 53 78 be 3e ea 2b 9f be f5 a4 0c 3e
       0.03147239 0.37201175 -0.3108819 0.13734801
000390 03 65 9b 3e 30 6b 1b 3f 3e b3 5d 3e 35 eb 8a be
       0.30350503 0.6071043 0.21650407 -0.27132574
0003a0 eb 9b 99 bd 89 24 c9 3e bf 90 07 be a5 a7 ab be
       -0.07500442 0.39285687 -0.1323881 -0.3352634
0003b0 07 42 8b be 0e bc a1 3e 9c 6d d5 bd 2f f4 35 3e
       -0.27198812 0.31588787 -0.10421297 0.1776893
0003c0 03 8b bf 3c 11 72 40 bd 2b b1 de 3d 9a 46 d8 bc
       0.023381716 -0.046983782 0.10873636 -0.026400853
0003d0 b7 2b c9 bc bc ee f6 bb b0 14 18 bd 33 8e b5 3d
       -0.024556978 -0.0075357836 -0.037129104 0.08865013
0003e0 6f 6c 10 3d d9 ed 11 3c bf d3 26 bc 56 15 53 bd
       0.03525966 0.008906805 -0.01018232 -0.05153402
0003f0 fc 66 49 3e 93 0c 43 bd 96 0b 74 3d 52 f2 05 3d
       0.19668192 -0.047619414 0.05958136 0.032701798

bias f4 [512]
000000 76 6f 1b 3e 95 bb 7e be 45 6c 76 3d 6d 9d 18 bc
       0.15179238 -0.24876244 0.060161848 -0.009314877
000010 d7 d8 df bd 03 1a 24 3e 6c 6f c6 bd 92 03 b7 3d
       -0.10930031 0.16025548 -0.09689221 0.08936228
000020 67 9a 77 bc 8b fd 13 bd 26 84 5a bd 23 4a a6 3d
       -0.015112496 -0.03613047 -0.053348683 0.08119609
000030 c6 17 d3 bc 97 9c ac bd 48 73 39 3e b8 c0 1a be
       -0.025768172 -0.08428305 0.18110383 -0.15112579
000040 5b 95 b8 bd b0 17 0a 3d 84 c2 b4 bd 58 d8 7d 3c
       -0.09012862 0.033713996 -0.088261634 0.015493475
000050 de 2a 1b be 4a 59 88 3d 0b 1c 12 be 42 70 03 be
       -0.15153071 0.066576555 -0.1426851 -0.12835792
000060 2b e1 21 3e db 65 1a 3e 64 7a 86 bd c5 cd b7 bd
       0.15808551 0.15077917 -0.06566313 -0.08974794
000070 94 58 22 3e 57 7c 55 be ea 25 09 be ef 1a b5 bb
       0.15854102 -0.20848213 -0.1339337 -0.0055268924
000080 6f 7e aa bd b5 3c 83 3c 85 ee d3 3d c3 b9 61 bd
       -0.083248965 0.016020158 0.10348228 -0.055108797
000090 e1 af 5d bd 18 71 85 3d 27 bf a4 bc 92 c6 2f 3e
       -0.05412281 0.065157115 -0.02011068 0.17165592
0000a0 c8 e4 03 be 32 8e af bd ca ae f4 3d b4 f7 e4 3d
       -0.12880242 -0.085720435 0.11947401 0.11180058
0000b0 15 75 80 bd 3e 9f b1 3d 7a 6a 7d bc a2 bc 23 3c
       -0.062723316 0.08672951 -0.0154672805 0.009993704
0000c0 14 b2 49 3d f2 ed e0 bc e8 d6 ee bd cf c2 06 be
       0.049242094 -0.027457211 -0.11662084 -0.13160251
0000d0 5d a4 cf bd 21 4c a1 3d 60 2f 30 3c 8f d4 19 be
       -0.10138772 0.078758486 0.010753483 -0.15022491
0000e0 ad 67 aa 3d 08 ac 8e 3c 9b 64 9f 3d a2 52 3f 3e
       0.08320556 0.017416015 0.07782861 0.18683866
0000f0 81 fc 23 3e 32 92 52 bc 63 14 ce bd 3d 6c 29 be
       0.16014291 -0.0128522385 -0.10062482 -0.16545196
000100 71 81 79 be 68 47 9d be 96 61 ad 3d 0a 30 6b bb
       -0.24365784 -0.3071854 0.08465879 -0.0035886788
000110 74 bd c5 3d 36 92 f7 3d 1a 9a d5 bd d8 da f6 3d
       0.09655276 0.120884344 -0.10429783 0.1205346
000120 77 ea 37 3e b8 2c 83 be eb 73 b4 bd 3d 50 d3 bd
       0.17960535 -0.25620055 -0.08811172 -0.103180386
000130 29 21 22 3d 98 b6 99 3c bc 8a 08 3e 06 42 d2 bc
       0.039582405 0.018763825 0.13334173 -0.025666248
000140 32 68 88 be 94 78 db 3d 39 0b 80 3d 66 75 12 be
       -0.26641995 0.10716358 0.062521406 -0.14302596
000150 0a c9 17 3e 35 44 f7 bd d7 df 3e be f5 37 e0 bd
       0.14822784 -0.12073556 -0.18640076 -0.10948173
000160 2c 33 41 bd f6 a8 cc bd bf 3a 24 be f8 31 c4 bd
       -0.047167942 -0.09993164 -0.16038035 -0.09579843
000170 aa 15 93 bb c1 2d 90 bd ee 1d 52 be 77 73 e3 bd
       -0.0044886665 -0.07039977 -0.2051923 -0.111060075
000180 6b bd 5e be e4 a3 5d 3a 76 d5 a8 3d f4 13 0d 3e
       -0.21751945 0.00084549026 0.082438394 0.13777143
000190 fd 4c 79 bc 8b 19 52 be 99 26 85 3c f6 f2 67 be
       -0.015216109 -0.20517556 0.016253756 -0.22651276
0001a0 11 62 11 3e e4 46 57 3e a4 6a a9 bd 5f d7 d3 bb
       0.14197566 0.21023136 -0.08272293 -0.006464883
0001b0 ca ae 17 be c1 87 56 be f1 64 4f 3e 21 c5 2f 3c
       -0.1481277 -0.20950224 0.2025335 0.010728152
0001c0 70 fe 0c 3d 19 7b 1c 3e 4d 83 d2 3d 87 40 e1 3c
       0.034422338 0.15281333 0.1027895 0.02749659
0001d0 bf d9 8e be 05 43 fd bc 73 5f fd 3d e5 ff 03 be
       -0.27900502 -0.030915746 0.12371721 -0.12890585
0001e0 9d d2 72 3c f2 88 cf bd 94 93 83 3e d1 52 80 bd
       0.014820722 -0.10133542 0.2569853 -0.06265796
0001f0 9e ac 71 3d 8d 7a ed bd ca e9 cd 3d 8e 8b e8 bd
       0.05900251 -0.1159564 0.10054357 -0.11354743
000200 1a 8c b6 bc 97 bb 63 be f2 4c d8 3d dd e2 03 be
       -0.022283603 -0.22239529 0.10561551 -0.1287951
000210 8c fa 94 bd c7 15 56 be 7e ef 8b bd 95 0a 20 be
       -0.072743505 -0.20906745 -0.06832789 -0.15629037
000220 1a d1 53 3e b3 51 4a bd cb 8f 83 be 7b ce 65 3c
       0.20685235 -0.04939432 -0.25695643 0.01402628
000230 f3 e3 35 be 34 78 a4 bd 1d 83 15 3e 90 a9 67 be
       -0.17762737 -0.080307394 0.14600797 -0.22623277
000240 41 e8 4c bd bc 7c 30 be 77 2d 01 be 46 cd a3 3c
       -0.050026182 -0.17235082 -0.12615 0.019995343
000250 17 0d 4d be 35 96 d7 bd e0 3d 0b be e2 66 b8 bd
       -0.20024525 -0.105266966 -0.13597822 -0.09003998
000260 ca e2 7e 3e 4d 29 b7 bd 67 95 d3 3d 89 a6 7f bd
       0.248912 -0.089434244 0.103312306 -0.06241468
000270 1d 06 00 3e bf 83 3b 3e 63 75 8d 3c 93 49 c1 bd
       0.12502332 0.18311976 0.017267888 -0.09437861
000280 5a 74 02 3e fa d3 75 be 7e 2c 7c 3b e3 fa e2 bd
       0.12739697 -0.24006644 0.0038478668 -0.11083009
000290 87 c7 b6 3d d8 e0 37 bc df 82 8f bd bc 25 41 3e
       0.089247756 -0.0112230405 -0.070073836 0.18862051
0002a0 f7 c7 1d 3d b2 a7 64 be 08 e5 07 bd 81 4e 57 bd
       0.03852078 -0.22329596 -0.033177406 -0.0525651
0002b0 ac 07 6d be 64 b2 8e bd 6e 8f b4 3d f5 8c 58 bc
       -0.23147458 -0.06967619 0.088164195 -0.0132172005
0002c0 45 f7 c8 bd 27 c0 11 3e b9 b8 df bb bf e5 64 3e
       -0.09812788 0.14233457 -0.0068274406 0.22353266
0002d0 af c4 5c 3d ac cd 26 3d 8a ee b1 bd 19 0b 41 3e
       0.05389851 0.040723488 -0.08688076 0.1885189
0002e0 16 cf d0 3d 66 c9 1c bd 86 1a 0d 3e 7f 4a 2a be
       0.101957485 -0.038278006 0.13779649 -0.1662998
0002f0 65 a7 13 be ce 49 ef bd 55 7e ab bd e7 60 4f 3e
       -0.14419325 -0.11683999 -0.08373705 0.20251809
000300 42 cd 10 3d 37 34 b7 bd 5e d4 c6 3d 7e 1c 55 3c
       0.035352 -0.08945506 0.097084746 0.013007281
000310 22 c1 1e bd 1c c4 11 3d 4d f3 45 3e 69 b8 8a 3d
       -0.038758405 0.035587415 0.19331093 0.06773455
000320 fe 24 b9 3d 22 e3 17 3e fc 20 b6 3d bd 13 8f bd
       0.09040259 0.14832738 0.0889301 -0.06986187
000330 5f 3c 70 bd 61 27 e3 3d 62 7b 5a 3d 36 85 02 3e
       -0.058651324 0.11091495 0.053340323 0.12746128
000340 18 55 30 3e 72 4b e4 3d 07 76 d3 bd d2 d8 28 bd
       0.1721996 0.111472026 -0.10325246 -0.0412224
000350 fa 69 c8 bd 51 bd b6 3d 9b 40 4e 3e 5f 57 d0 3d
       -0.097858384 0.08922828 0.20141833 0.10172915
000360 a0 f3 d4 bd 7a 67 6b 3e 47 4b 1f bd 94 72 a5 3d
       -0.1039803 0.22988692 -0.03889015 0.08078495
000370 50 a3 98 3d 9a 5c 2f 3e 42 b7 f0 bd a4 3b 03 3c
       0.074530244 0.17125168 -0.11753704 0.008009825
000380 60 3c f9 bd da e4 9c bc 5e ed 69 bd ce de 56 bd
       -0.12169719 -0.019152094 -0.057111137 -0.052458577
000390 0b 77 0d 3e cc f9 4c 3e 28 2d 09 3e db b8 0b bd
       0.13814943 0.20017165 0.13396132 -0.03411184
0003a0 ae 91 82 be 9b 97 a5 bd f5 93 a1 3c cc 35 5a 3d
       -0.2550177 -0.08085557 0.019723872 0.05327396
0003b0 fe 4e 2e bd 1d ad 01 be a6 26 aa 3d 53 4d e9 bb
       -0.0425558 -0.12663694 0.08308153 -0.0071198135
0003c0 e9 4e 0d 3e f0 91 13 3e 37 de 5c 3e 42 2f a3 3c
       0.13799633 0.1441114 0.21569143 0.019919995
0003d0 54 fd 4e 3d 5e 97 c4 3d 3b e5 5b be 11 0c 18 3e
       0.05053456 0.095991835 -0.21474163 0.14848353
0003e0 79 30 e8 bd 25 0a bd 3d 22 df 42 be 6d 40 55 bd
       -0.113373704 0.092304505 -0.19030431 -0.052063394
0003f0 04 49 b4 3c 68 06 90 be 35 10 f5 bd 27 ab 17 bd
       0.022007473 -0.28129888 -0.11965982 -0.037028458

weight f4 [256, 512]
000000 02 06 81 3c a8 a4 6f 3e 2a e8 29 bd 05 66 a4 bd
       0.015749935 0.23402655 -0.041481175 -0.08027271
000010 b7 42 da bc 4a ad 15 be 24 e8 41 3e 49 a7 5f 3d
       -0.02664314 -0.14616886 0.18936211 0.054602895
000020 12 78 ee bd fa b7 de 3d 72 fd 5c bc f1 d3 e2 bc
       -0.11643995 0.108749345 -0.01348816 -0.027688952
000030 46 03 7f 3d 0c a6 de 3d fb aa 1b 3d dc 5f 65 bc
       0.06225898 0.10871515 0.038004857 -0.013999905
000040 8a a7 35 3c de 16 af bd 6f 31 c4 3d dd 8a 4e bd
       0.011087308 -0.085492834 0.09579741 -0.0504254
000050 6b 5a 67 bd 95 52 db bd 6a 47 a7 3d 59 37 93 3a
       -0.056482714 -0.10709111 0.08167918 0.0011231705
000060 8a 2a d6 bc 08 07 89 bc 87 52 21 3d 08 4c 80 3d
       -0.026143331 -0.016726986 0.039385345 0.06264502
000070 53 23 3a bc a9 54 53 3d b3 af 98 3d f0 41 08 be
       -0.011360961 0.05159441 0.07455387 -0.13306403
000080 45 c8 f9 3d 6f a0 01 be 16 83 9e bd d2 e7 dc bc
       0.121964015 -0.12658857 -0.077398464 -0.02696601
000090 70 e3 3d bd f2 57 65 3b 78 70 a4 bd b5 32 d7 bc
       -0.04635948 0.0034995046 -0.08029264 -0.026269296
0000a0 8b eb ed bd c3 df 36 bd 2a f0 03 be 1e a8 91 3d
       -0.11617192 -0.04464699 -0.12884584 0.07112144
0000b0 4b 87 bf bc df ec 8f bd cb 6e c6 3d b4 ae e0 3c
       -0.023379942 -0.070276015 0.09689101 0.027427055
0000c0 01 e1 25 3b 7c 35 71 3b dd f2 a5 3b 66 d8 34 bc
       0.0025311115 0.003680556 0.005064352 -0.0110379215
0000d0 06 ed 23 be 7a 13 f7 3c 50 80 95 3d af e5 06 bd
       -0.16008386 0.030160654 0.07299864 -0.032933887
0000e0 9f 9f 11 bc e4 43 2a 39 c6 40 da bd dc b6 8d bc
       -0.008888154 0.00016237755 -0.10656886 -0.017299108
0000f0 39 5a 05 bc b5 01 af bd 14 5c ad bd 41 c9 1e 3e
       -0.008139187 -0.085452475 -0.08464828 0.1550646
000100 29 a1 de bb 70 9d 2f bd 66 a3 05 bd 2f 4a 31 3e
       -0.006794114 -0.042874753 -0.032626532 0.17313455
000110 f7 6e 92 bd eb 5f 23 3e 9e 71 31 bd 4d 66 88 bd
       -0.07150071 0.15954559 -0.043321244 -0.06660137
000120 48 6c c0 3a a3 6b 46 bc 42 ca 0b bd 4b aa 15 3d
       0.0014680708 -0.0121106235 -0.034128435 0.036539357
000130 8f f2 07 bd a3 5a 34 be 25 6d 43 3d 5f f4 77 bd
       -0.033190306 -0.176127 0.04771151 -0.060535785
000140 06 a3 20 be 44 8b c3 3d 17 7c cc 3d f9 ac b3 3b
       -0.15687189 0.09548047 0.09984606 0.0054832664
000150 04 41 88 bd 3c ac d3 3a 57 55 50 bd f8 9c 64 bd
       -0.06653026 0.0016149352 -0.050862636 -0.05581376
000160 cd b7 97 3c b8 23 78 bd 98 a1 bd 3c be 83 7b bd
       0.01852026 -0.06058094 0.023148343 -0.061404936
000170 a9 91 b0 bc b0 7d 3a 3d be 48 b2 3c b7 bd ba bd
       -0.021553831 0.04553002 0.021763202 -0.091182165
000180 87 82 95 bd 98 fc 2c bd 92 a9 f5 3c 34 74 36 bd
       -0.07300287 -0.04223308 0.029988084 -0.044544414
000190 2f 55 b6 3d 44 78 eb bd 6f 94 62 bd c2 79 ea 3b
       0.08902966 -0.11497548 -0.05531734 0.007155628
0001a0 bc 44 9a bd 9b 38 c8 3d f4 5e d0 3d 84 f7 80 bd
       -0.07532641 0.09776422 0.10174361 -0.0629721
0001b0 ad 4d 3c 3d 9d 75 42 3d 5f 58 a4 3d b3 09 a8 3d
       0.045972515 0.047475446 0.08024668 0.08204975
0001c0 35 79 83 bd 6d a0 86 bd 3f 7e e7 bc 4b ff 52 3d
       -0.06419603 -0.065735675 -0.028258441 0.051512998
0001d0 17 55 8e 3d 7a 9e 8d bc ef 50 68 bd 9d a8 0b 3b
       0.06949823 -0.017287482 -0.05671781 0.0021310218
0001e0 52 79 f3 bd ae 61 e6 3c 0a 81 9d bb cd 75 b9 bb
       -0.118883744 0.02812275 -0.0048066424 -0.005659795
0001f0 65 ac 8f 3c 2e 2a dc 3c 68 be ab 3d e2 1a 2a 3c
       0.017538259 0.026875582 0.083859265 0.010382386
000200 76 bf 12 3d 17 03 a9 bc 57 b8 af bd 06 ff b8 bd
       0.035827123 -0.020631356 -0.08580082 -0.09033017
000210 07 20 fb bd 1c 64 d6 3b ba ee 4a bb a7 5f 20 3b
       -0.12261968 0.0065426957 -0.0030965046 0.0024471076
000220 cd 80 7e bd ef 1c 27 bd e5 35 39 bd f8 f1 97 bd
       -0.062134553 -0.040799078 -0.045217413 -0.07419199
000230 3b dc 70 3d ca 61 8c 3d f2 51 50 bc 2d 84 33 be
       0.05880378 0.06854589 -0.01271485 -0.1753089
000240 cd 36 06 3d bb 7a f0 bc f9 59 d9 bb 91 2c b1 bd
       0.032767106 -0.029355397 -0.00663304 -0.086510785
000250 f5 2c 84 bd fe 33 09 3e 76 5e 8c 3c fa 00 23 3e
       -0.064538874 0.1339874 0.017134886 0.15918341
000260 4e 7a 78 bc da b5 b8 bc 43 91 89 bc 7b fe 9e 3d
       -0.015165878 -0.022547651 -0.016792899 0.07763382
000270 a1 b2 7f 3d d5 9d 4a be 38 bf 98 bc ce 61 a6 bd
       0.062426213 -0.1978677 -0.018645868 -0.081241235
000280 84 ee 86 bd 8f 43 9b 3d 4c 9a d7 bc 19 b2 4b bc
       -0.06588462 0.07581245 -0.026318692 -0.0124325985
000290 ec a0 c8 bd 51 7c ba 3d f5 d6 fe bd e7 52 2c 3d
       -0.097963184 0.09105743 -0.124433435 0.04207125
0002a0 08 05 90 bc dc 0e ad bc 41 8f 9a bd ef 9f 83 3c
       -0.017580524 -0.02112525 -0.07546855 0.016067473
0002b0 d1 62 f4 3d c6 30 67 bc 47 8b d2 bd 0d 85 d8 bd
       0.1193291 -0.01411075 -0.10280471 -0.105722524
0002c0 40 58 bc bd 43 c7 7d 3d 37 9d 47 3d ff 5a ca bd
       -0.0919652 0.06195761 0.048733916 -0.098806374
0002d0 59 54 5f 3d 5f 60 b4 bd 00 f0 80 3d 28 0e 55 bc
       0.0545238 -0.08807444 0.06295776 -0.013003863
0002e0 e3 8c 0d 3d ec ef 72 bd 3e 14 8e ba c2 2d b4 3d
       0.03455819 -0.05931084 -0.0010839773 0.0879779
0002f0 c4 69 3f 3d 36 75 44 3e d2 03 09 bd 68 32 2f bc
       0.046731725 0.19185337 -0.03345091 -0.01069317
000300 6e 7b 83 bd f9 31 14 3b 03 29 8b bd 2b 73 2b be
       -0.06420027 0.0022612794 -0.06794932 -0.16743152
000310 12 d3 f1 3b 16 23 09 be 1e 6f ba bc a2 21 27 3d
       0.007379898 -0.1339229 -0.022758063 0.04080356
000320 bb 81 12 be 6f f8 5f 3d 4d 8a 36 3d d6 33 c5 bd
       -0.14307301 0.054680284 0.044565488 -0.096290275
000330 6f d9 70 3d 31 3f 13 bd 1d 94 07 3e 72 6b b7 bc
       0.05880111 -0.035948936 0.13240094 -0.022390101
000340 da e2 db bd 06 8a 3e 3d 87 0a 0e bb b2 91 ba bc
       -0.10736628 0.04651835 -0.0021673755 -0.022774551
000350 39 17 2c 3c db c9 01 bd d8 0c 86 3b c6 ea 92 3c
       0.010503584 -0.031686645 0.0040908866 0.017934214
000360 a0 b8 f5 bc b2 3f df 3d a3 7a 9e bc 0b 51 15 be
       -0.029995263 0.10900821 -0.019345587 -0.14581697
000370 cd 32 8a bb ca 7a 97 bc e9 cd 10 bd fa 56 52 3d
       -0.0042174817 -0.018491168 -0.03535262 0.05135248
000380 f2 b7 b9 bd db 22 61 be a3 d0 dc 3c d1 d3 f7 bc
       -0.09068288 -0.21985953 0.026954954 -0.03025237
000390 d1 de 45 bc 13 4d 83 bd f3 4b 47 bd 8f 46 aa bc
       -0.012077049 -0.06411185 -0.048656415 -0.020785598
0003a0 93 88 8c bd f8 25 96 3d 7a 4d 95 bd b4 58 e4 3d
       -0.06861987 0.07331461 -0.07290168 0.11149731
0003b0 21 19 8c bd fb 39 d2 3d 05 67 32 bc d2 33 a5 3d
       -0.068407305 0.10264965 -0.01088882 0.080665246
0003c0 fa c4 41 3d 1a 0a cb bd 54 4d 02 3d 53 b1 5a 3d
       0.047306992 -0.09914036 0.031812027 0.053391766
0003d0 ee d4 26 bd 98 63 07 be 56 95 88 3d 50 ca 2e 3d
       -0.04073041 -0.13221586 0.066691086 0.04267341
0003e0 65 2a 9b bd 69 55 0b 3d ef 9f fc bc c4 80 1d 3e
       -0.075764455 0.034017 -0.030837981 0.15381151
0003f0 26 49 c7 bc 9f 1c ae 3d aa 2a 1f be 10 17 30 bd
       -0.024326872 0.08501553 -0.15543619 -0.042990744

bias f4 [256]
000000 c1 1b ca bb 3a 90 95 bc 88 ef 8e bd b3 43 44 bd
       -0.0061678593 -0.01825725 -0.06979281 -0.047916126
000010 a0 80 86 3d 31 57 f9 bd c8 57 79 bd e9 ef 18 bb
       0.06567502 -0.121748336 -0.06087473 -0.0023336357
000020 36 b1 d8 bd 05 4a 09 be 24 19 12 bd 13 0a ee bd
       -0.10580675 -0.13407142 -0.035668507 -0.11623015
000030 e1 db 80 bd d5 6d b0 bd bb 49 5d bd ce 28 dc bd
       -0.062919386 -0.08614699 -0.054025393 -0.107499704
000040 4f da 1e bd bd f1 6a bd f3 0e 2b bd 90 56 0d be
       -0.038782414 -0.057359446 -0.041762304 -0.13802552
000050 ed 9e dc bd 81 2b 84 be 70 86 35 bc 8e 65 c8 bd
       -0.107725 -0.2581444 -0.011079416 -0.09784995
000060 65 67 38 3d 76 ef c0 bd 6e f8 f8 bd 66 d6 b0 bd
       0.04502048 -0.094206735 -0.12156759 -0.08634643
000070 e7 2c ad bb 11 69 47 bd e0 db 01 bc 59 30 af bd
       -0.005284894 -0.048684184 -0.007925957 -0.085541435
000080 bb af 2f be ac 43 c2 bd ac f8 05 be 05 ac a5 bd
       -0.1715688 -0.09485564 -0.13083142 -0.08089451
000090 28 b6 04 be 5e d5 9f bb f8 52 24 be 7b fb 02 be
       -0.12960112 -0.0048777303 -0.16047275 -0.12791245
0000a0 b0 b8 54 bd e4 7a 4a be df 3b 08 be 76 95 01 be
       -0.051933944 -0.19773442 -0.13304089 -0.12654671
0000b0 11 f9 4f bd fe 7e 00 be 24 01 5a bd 01 d9 07 be
       -0.050774638 -0.12548444 -0.053223744 -0.13266374
0000c0 28 71 0e be ea 00 f9 bd 3b 3d 89 be f7 4a fb 3b
       -0.13910353 -0.121583775 -0.26804528 0.0076688486
0000d0 2d 0b 8c bd 96 df 23 be bc db 42 be 4c 29 17 be
       -0.06838069 -0.1600326 -0.19029135 -0.14761847
0000e0 25 7a 24 bd 27 14 d6 bc 0a d6 0c be 65 65 67 3d
       -0.04015555 -0.026132656 -0.13753524 0.05649318
0000f0 74 c5 84 bd 25 49 8a bd cf 05 d5 bd 96 70 30 3b
       -0.06482974 -0.067522325 -0.104014985 0.0026922575
000100 34 0b 63 be 53 f6 12 be 5c fd 8e bd 10 62 d7 bd
       -0.22172242 -0.14351778 -0.06981918 -0.10516751
000110 70 13 1c bd 95 0d 8e be d8 25 c9 bc ff ac 42 bd
       -0.038104475 -0.27744737 -0.024554178 -0.047528263
000120 14 12 37 be 26 c3 10 bd c1 68 82 bd 92 48 26 3c
       -0.1787799 -0.035342358 -0.063676365 0.010149138
000130 19 68 50 bd cc f3 fc bd 94 cc ba bd 58 a8 1c be
       -0.050880525 -0.12351188 -0.091210514 -0.15298593
000140 e8 11 a4 bd b6 43 0b be 71 35 a2 3b 53 cb 4f 3c
       -0.08011228 -0.13600048 0.0049502184 0.012682754
000150 71 ea 39 be cb 6a bf bd 06 19 ff bd 8c 1f 18 bc
       -0.18155839 -0.09346541 -0.12455945 -0.009284865
000160 8a 42 fc bd 98 38 d7 bd b5 2a dd bd 26 87 8b bd
       -0.12317379 -0.10508841 -0.10799161 -0.06812887
000170 06 1b 29 bd b3 67 0a 3c 76 b3 89 ba da cf 3d bd
       -0.041285537 0.008447575 -0.0010505754 -0.0463408
000180 a0 34 46 bc ea 0d d0 bd b8 fb 00 be 30 5b 64 bd
       -0.012097508 -0.10158904 -0.12596023 -0.055751026
000190 93 89 36 bc 9e 6d a5 bd e4 16 21 bd f0 2e 13 be
       -0.011141199 -0.080775484 -0.03932847 -0.14373374
0001a0 f0 ed 3b bd 2d 34 c5 bd 43 58 6a bd 63 a7 d8 bd
       -0.04588121 -0.09629092 -0.05721308 -0.105788015
0001b0 9a 7b af bd 9b 3c bb bc 9f ab 26 bd 33 8e 17 be
       -0.08568497 -0.022856047 -0.040691014 -0.14800338
0001c0 ab 3d f2 bd 36 4a 0d be 62 f5 5c 3d 8d ae aa 3c
       -0.118281685 -0.1379784 0.053944953 0.020835185
0001d0 38 c6 b6 bd 1d e2 06 be bf ae f3 bc 25 d1 4e be
       -0.08924526 -0.13172193 -0.029746411 -0.2019697
0001e0 b5 00 63 bd 87 52 82 3c d2 5d 57 bd e3 a7 f2 bd
       -0.055420596 0.015908493 -0.05257971 -0.11848428
0001f0 25 0a cf bd b7 bd 17 bd 88 59 b2 3c 34 a2 36 bd
       -0.10109357 -0.03704616 0.021771207 -0.044588283
000200 b9 bd 8b bd 34 ea b2 bd 67 c3 88 bd 04 24 3c be
       -0.06823296 -0.08736077 -0.06677895 -0.18373114
000210 21 0e 91 bd fe 74 19 bd fb c3 b9 bd 9f 59 ce bc
       -0.07082773 -0.037465088 -0.090705834 -0.025189219
000220 c9 7a 15 be 77 24 d4 bd 30 88 37 be 0c d2 25 be
       -0.1459762 -0.103585176 -0.17923045 -0.16193408
000230 7a f6 5e be c1 27 e9 bd 0e 5b b5 bd 22 77 e2 bc
       -0.21773711 -0.113845356 -0.08855258 -0.027644698
000240 1e 63 f7 bd 24 f1 3e bd fb a4 88 bd 51 c2 d3 bc
       -0.12079452 -0.04661669 -0.066720925 -0.025849493
000250 9f f6 28 be ce 24 a2 bc d9 8d 55 bd 4e 37 87 bd
       -0.16500328 -0.01979294 -0.05213723 -0.066023454
000260 c3 bd 8d bc 02 82 09 3c a7 3c 85 bd 50 e2 05 be
       -0.0173024 0.008392813 -0.06505709 -0.13074613
000270 89 dc eb bd 23 92 07 be c4 9c 5f be a8 cf cd bd
       -0.11516673 -0.1323934 -0.21837145 -0.10049373
000280 23 13 73 be e0 37 e1 bd fc 6a 5a bd b9 af 25 be
       -0.23737769 -0.109969854 -0.053324685 -0.16180314
000290 78 52 dd bd 0a c3 12 be f6 42 5f 3c 47 fc f2 bd
       -0.10806745 -0.14332214 0.013626805 -0.11864524
0002a0 5f 9f c6 bc f1 bb fe bd 07 e4 89 bc e0 71 65 bd
       -0.024245916 -0.12438191 -0.016832365 -0.056016803
0002b0 8a ae b0 bd 56 2d 8f be 03 fb e5 bd 96 7f 5d bd
       -0.08627041 -0.27964276 -0.11229517 -0.054076754
0002c0 48 32 34 be 61 06 17 bc 65 40 17 be 59 c4 14 bd
       -0.17597306 -0.009217829 -0.14770658 -0.036320064
0002d0 0c de 66 3b fd 0c 1c bd a9 ea 9c 3d 7c 4a 01 bd
       0.0035227565 -0.038098324 0.076619454 -0.031565174
0002e0 8a cb 64 bd b7 39 f5 bc 9c 4f 80 bd 92 f1 3a be
       -0.055858172 -0.029934747 -0.06265184 -0.18256214
0002f0 20 4e 2d be d9 37 8a bc bc 9b 4b bd fe 88 88 be
       -0.16924334 -0.016872333 -0.049709067 -0.26667017
000300 66 2c 05 be d4 70 d2 3c f1 2f 91 bd 42 64 34 bb
       -0.13005218 0.025688566 -0.07089222 -0.0027525579
000310 5e f2 52 be 93 0a c3 3c 52 37 2d bc 32 db aa 3c
       -0.20600268 0.023808753 -0.010572271 0.020856474
000320 bb d3 ba bd 8b 6d bb bd de 05 8b bd 1a 17 5f bd
       -0.09122416 -0.09151753 -0.067882285 -0.05446539
000330 d4 dd f5 3c 37 87 1e be f3 70 1c be 60 3d 48 be
       0.030013002 -0.15481268 -0.15277462 -0.19554663
000340 a6 d8 80 bd e7 68 02 be e1 dc cf bd 05 40 dc bd
       -0.062913224 -0.1273533 -0.10149551 -0.10754398
000350 35 48 06 be e2 d8 25 be 49 8f 23 3d 02 df 5b be
       -0.13113482 -0.16196015 0.03993157 -0.2147179
000360 18 ff 9e bd f1 5a 96 bd 86 29 9e bd d8 c0 a8 bd
       -0.07763499 -0.073415644 -0.07722764 -0.08239907
000370 fb 44 ce bb 85 7d 05 be 08 9c a3 bd 93 0f ba bd
       -0.006294844 -0.13036163 -0.07988745 -0.09085002
000380 27 cc 89 bc 44 88 30 3d 81 88 ce bd 0e 52 4d bd
       -0.01682098 0.043098703 -0.1008463 -0.05012708
000390 2d 0c 1a 3c d0 5f d8 bd 17 1d 93 3d 4a 80 3c be
       0.009402317 -0.1056515 0.07183283 -0.18408313
0003a0 f2 11 f6 bc 32 12 2e 3d 57 ff 2d 3b 23 50 dc bd
       -0.030037854 0.04249782 0.00265499 -0.10757472
0003b0 42 b9 84 bd c4 54 5b 3c 88 2a 60 bd 19 23 a4 bc
       -0.064806476 0.013386909 -0.05472806 -0.020036267
0003c0 ae 97 d3 3b 60 74 0b be 5a 52 c8 bd 72 5f 92 bd
       0.0064572906 -0.13618612 -0.09781332 -0.07147111
0003d0 3e f5 df bd b2 f3 dc bd d4 b7 60 bd b5 55 bd bd
       -0.10935448 -0.10788669 -0.054862812 -0.09244863
0003e0 0f 5b b1 bc d1 91 22 be 0a a7 7a bd f0 e1 99 bd
       -0.021649865 -0.15875937 -0.061194457 -0.07513797
0003f0 fd 5c c1 bd 20 37 b4 bd 5a 58 bf bb b4 19 dd bd
       -0.09441564 -0.08799577 -0.0058393897 -0.10795918

weight f4 [128, 256]
000000 12 32 a8 3d af 7f 2a 3d 43 7e 9d 3d 7b e6 54 3c
       0.08212675 0.041625675 0.07690098 0.012994404
000010 40 d7 f7 bd 05 03 3c bc 72 b3 95 bd ef 2e f5 bd
       -0.121016026 -0.011475329 -0.07309617 -0.119718425
000020 9a b2 8c bd 36 aa 58 3d 66 43 59 3d ed 0c 9e bd
       -0.06870003 0.0528967 0.05304279 -0.07717309
000030 4a 0e ab 3c 1e 12 02 bd e3 63 fd bc 96 42 77 3d
       0.020880837 -0.03175556 -0.030931419 0.060366236
000040 f1 1e 4c 3d 2d 5e bb bd 67 b8 7e bd ab 0d c2 3d
       0.049834196 -0.09148822 -0.06218758 0.09475263
000050 0d f4 eb bd 8b d7 fb bc ec 1e c0 3c 6f de 56 3d
       -0.11521158 -0.030742427 0.023452245 0.052458223
000060 0f ed 09 3d 3e c7 33 bd be 31 da 3d 35 cd ff bc
       0.033673342 -0.043891184 0.10654019 -0.03122578
000070 c5 cd 97 bd 86 68 4f be 30 a2 d1 bd c8 9e 8f 3d
       -0.07412294 -0.20254716 -0.10236013 0.07012707
000080 2f ee 20 bd 2f 5b 0b 3e 6a c1 23 3e c6 3c 5d 3c
       -0.03928965 0.13609003 0.1599175 0.013503259
000090 c7 33 db 3d 67 08 17 3c 5b 53 d8 3c a5 54 9a 3c
       0.10703235 0.009218312 0.026406934 0.01883919
0000a0 51 df 81 bc 46 f9 18 3c 0e b7 72 3d 9c 8a ba ba
       -0.015853556 0.009336775 0.059256606 -0.0014231983
0000b0 33 73 80 bc 52 10 94 bd 4d cc 87 bd 30 9a eb bd
       -0.015679931 -0.07229675 -0.06630764 -0.11504018
0000c0 c4 9b d3 bc 1b 5f 24 3d 63 73 17 3c 91 42 f9 bd
       -0.02583111 0.040129762 0.009243819 -0.121709
0000d0 d2 50 a2 bd 2f be 87 3d 0b c8 d0 3c 47 7a 4d bd
       -0.079255715 0.066280715 0.025486013 -0.05016544
0000e0 a6 3b 1a bd 12 dd 88 3d fb 73 9a bc 97 2f be 3c
       -0.03765454 0.06682791 -0.018854132 0.023216052
0000f0 20 76 2e 3d ba de 35 3d a9 29 5e bd a4 06 d2 3d
       0.04259312 0.04440186 -0.05423895 0.10255173
000100 64 4b 10 3e 2a 10 51 3c 5a ce eb bd 44 39 ba bc
       0.14091259 0.0127602015 -0.11513968 -0.022732385
000110 2a 8f 5c bd 4b 69 6a 3d fd 7b 3b bd 32 b0 1f 3d
       -0.05384747 0.05722932 -0.04577254 0.038986392
000120 d6 fd 5c 3d 3a 82 98 3d 1a e9 d8 3d 83 3b cb 3d
       0.053953014 0.07446714 0.105913356 0.0992346
000130 29 f7 e2 bc 2d 17 27 3d 38 c1 f1 3d d2 11 93 bc
       -0.027705746 0.040793587 0.11804432 -0.017952833
000140 3c ee 84 bd 24 62 4c 3c fc 17 03 3d ad ac 9f 3c
       -0.06490752 0.01247457 0.032005295 0.019491518
000150 47 3d 25 bc d2 82 41 bd 8b 3f ed bc f9 59 95 3c
       -0.01008541 -0.0472439 -0.028960964 0.018231379
000160 d2 b1 13 3d 39 28 c1 bb f9 fb 72 bc 88 68 10 bb
       0.036058255 -0.0058946875 -0.014830583 -0.0022034962
000170 31 f1 95 3d 93 0a 0e bd 6e 2e 47 bc 6c c9 d8 bc
       0.07321394 -0.034678053 -0.012157066 -0.026463233
000180 dd cb 19 bb c8 df 6f 3c 13 c1 0b bd b0 e3 ad 3c
       -0.002346746 0.014640756 -0.034119677 0.021226734
000190 06 31 b2 bc 9a ba f6 bd 97 ed 39 bd d8 96 27 3d
       -0.021751892 -0.1204731 -0.0453926 0.04091534
0001a0 c8 da ed ba e4 c0 a4 3d a5 00 87 3d b9 0d 2b 3d
       -0.0018146867 0.080446035 0.0659192 0.041761134
0001b0 33 ca 21 3e 3f 9f f9 3c 65 19 68 3d a1 89 0b bb
       0.15799789 0.030471442 0.056664843 -0.002129175
0001c0 c8 ba 22 bd 2b 7a 76 3d cd a5 21 3c 0b b7 dc bd
       -0.03972891 0.060175102 0.00986619 -0.107771
0001d0 8f 89 56 bd b6 4b ae 3d 15 05 31 3d 7c 36 b0 bd
       -0.05237728 0.085105345 0.043217737 -0.08604142
0001e0 e3 c0 4d 3d ed b7 69 3c 69 4c d1 bc ee c0 96 3b
       0.05023278 0.014265043 -0.02554913 0.0046006357
0001f0 da 81 fc bd 28 50 9a bc 1e 78 3a 3b 47 2f c8 bc
       -0.12329455 -0.01883705 0.0028452943 -0.024436606
000200 b7 40 49 bd da c6 65 bc ab 63 9d bd f3 0e f1 3c
       -0.049133983 -0.014024461 -0.07685026 0.029426074
000210 25 93 3d bc 47 55 04 bd 77 c9 12 3c ac 55 57 3d
       -0.0115707265 -0.03230789 0.008959166 0.052571937
000220 f2 05 0b 3d ac 2f 6e 3c 4d d8 8b 3c 8b a6 1f 3d
       0.033941217 0.014537733 0.017070914 0.038977187
000230 bb 85 ec 3d 77 dd 31 3d 81 a4 c6 bd 69 9c 33 3d
       0.115489446 0.043424096 -0.096993454 0.043850336
000240 95 59 e0 bc da 5c 6c 3c 89 0a 5b bd 27 c9 72 3d
       -0.027386466 0.014426434 -0.053476844 0.059273865
000250 55 e0 73 bd 4f 75 f5 3d 68 12 7d bd 02 4c e2 3c
       -0.05954011 0.119852655 -0.06178513 0.027624134
000260 a8 fc dc 3d dc 5c f9 bd ee 9f 16 3c 12 a8 bc 3d
       0.10790378 -0.12175915 0.009193404 0.09211744
000270 d3 a1 a1 bd b8 83 ab bc 66 20 d6 3b 1e ac 39 3a
       -0.07892194 -0.020936832 0.006534624 0.00070828374
000280 15 ec 0a 3e 72 55 e9 bc a3 ca 87 bd a9 ad 76 3c
       0.1356662 -0.028483126 -0.06630447 0.015056052
000290 a7 5c 86 bc 6d 8e 00 bd 0b 48 96 bd ed 83 2a be
       -0.016401602 -0.031385828 -0.0733796 -0.16651888
0002a0 cb 9d ea bc a8 11 af 3d 43 69 a0 3c f7 66 ef 3d
       -0.028639695 0.085482895 0.019581443 0.11689561
0002b0 c6 57 b5 3c 48 46 53 bc c4 fb 82 3c 70 5a 9c bb
       0.02213658 -0.012895174 0.015989192 -0.004771523
0002c0 7a d2 5a 3d f6 88 7f bd 03 b2 df 3c fa fa 32 bc
       0.053423382 -0.062386476 0.027306562 -0.010924095
0002d0 8a db 74 3c 43 c3 d1 3d 57 d6 2a 3c fe 84 b9 bb
       0.01494492 0.10242321 0.010427079 -0.005661606
0002e0 0c 8e 24 bc aa 45 3a 3d 6d 02 0d bb 54 f0 eb bc
       -0.010043632 0.045476593 -0.0021516338 -0.02880112
0002f0 0d 97 c6 bc 57 64 00 bd e2 bb 82 bd 7d 16 43 bb
       -0.024241949 -0.03134569 -0.06383492 -0.0029768043
000300 9b 13 4c bd 4c 0b 4a 3d 9e 22 9f bd c2 84 d0 ba
       -0.049823385 0.04932718 -0.077702746 -0.0015908706
000310 92 85 77 3d 85 7a ab bd 9c e0 93 bd d0 f0 da bd
       0.060430117 -0.08372978 -0.07220575 -0.106904626
000320 a3 57 1a bd 81 fc 06 bc 18 aa be 3c a9 82 96 3c
       -0.037681233 -0.008238913 0.023274466 0.01837285
000330 cf e5 a1 3c 0a 34 9f bc 89 07 89 3c 48 09 31 be
       0.019762902 -0.019433994 0.016727226 -0.17288697
000340 b0 4e 85 bd 5c cd 75 3d cc fc 51 3d f5 62 09 be
       -0.06509149 0.0600103 0.051266477 -0.13416655
000350 fb 23 c7 bc 36 e8 ab 3d c2 18 29 bd 60 b4 f3 bb
       -0.024309149 0.083939 -0.041283377 -0.007437274
000360 78 cf c0 bd 66 f3 9a 3d f5 da 2e bd f3 87 08 bd
       -0.094145715 0.07565956 -0.042689282 -0.033332776
000370 ef 63 da 3c 86 a3 00 3d ec 83 3a 3e 50 3b 06 be
       0.02665898 0.031405948 0.18214387 -0.13108563
000380 d8 31 88 bc e8 96 d6 bd b9 1b 8f bd 29 78 7f bc
       -0.01662533 -0.10478002 -0.069877096 -0.015592613
000390 88 4f 37 3d a1 fa 9c bc 48 1d e0 3c 1a 4d 41 3d
       0.04475358 -0.019162478 0.027357712 0.04719267
0003a0 51 e4 d2 3d e7 f1 97 3d e1 19 59 bd 86 39 92 3a
       0.10297454 0.07419186 -0.053003196 0.0011156059
0003b0 46 8c 0c 3b 2f 0e 9f bc 11 da 13 bd 27 58 4a bc
       0.0021445914 -0.019415943 -0.036096636 -0.012350119
0003c0 2e 5d ee bb dc 92 a8 3c bb 38 11 bd 59 01 9d bc
       -0.0072742915 0.02057784 -0.035454493 -0.019165682
0003d0 a5 eb a7 bc d2 3c 49 bd 1f 79 86 bd 09 34 c4 bc
       -0.020498106 -0.04913027 -0.06566071 -0.023950594
0003e0 0b 83 45 3d b4 c8 b9 bd 7d 55 9c bd 5c 08 ea 3c
       0.048220675 -0.09071484 -0.07633493 0.02856844
0003f0 99 37 a1 bd 0a 62 2a 3d f9 47 b7 bc 23 d0 5e 3d
       -0.078719325 0.041597404 -0.022373186 0.054397713

bias f4 [128]
000000 3c a0 dc 3b 58 4a 76 bc 04 b0 a7 bd 4a 19 dc bc
       0.0067329686 -0.015032373 -0.08187869 -0.026867528
000010 8c 22 1c be b4 41 f1 bc 4b 33 7b bd 23 1e 44 3c
       -0.15247554 -0.029450275 -0.061328214 0.011970076
000020 d5 48 4f bc 7c a8 2c be 8e fa d8 bb ab 5e f6 3c
       -0.012651642 -0.16861147 -0.0066216653 0.030074438
000030 37 5a 30 be 81 7c a4 bd 05 a6 80 bd 57 90 4b bd
       -0.17221914 -0.0803156 -0.06281666 -0.0496982
000040 29 1c be bd c0 69 f9 bc 95 bb 04 be 8f ab 18 be
       -0.09282715 -0.030445933 -0.12962182 -0.14909194
000050 c8 af 53 bd b7 97 45 bd 95 d2 00 be 73 46 a1 bd
       -0.05168131 -0.04824039 -0.1258033 -0.07874765
000060 55 c0 e4 bb 07 35 4b bd 0d 4c 2f bd 5e 4e 99 bc
       -0.0069809356 -0.049611118 -0.042797137 -0.018714126
000070 ff c3 bb bc 5c 1a ca bc 20 d1 29 be 79 64 89 3c
       -0.022920607 -0.024670772 -0.16583681 0.016771542
000080 e0 b3 f8 bd b7 f9 8c bd db 38 35 bc 13 60 d6 bc
       -0.121436834 -0.06883567 -0.011060919 -0.026168859
000090 ef 6d 2a 3b c5 0b 76 be db 74 34 bd a2 f1 a1 bd
       0.0026005467 -0.24027927 -0.044056755 -0.07907416
0000a0 19 bb 57 bd 5e 61 39 be b0 3a ba 3a 8d fa ff bc
       -0.052668665 -0.18103549 0.0014208164 -0.031247402
0000b0 5e 3c a6 bd 5c 97 ff bc 22 ed cd bc 94 a9 fa bc
       -0.08116983 -0.031200103 -0.025137488 -0.03059844
0000c0 5a f9 ee bd 2a 64 5c 3c 55 7d 96 bd 7c 6d 8f 3c
       -0.11668654 0.013451615 -0.07348124 0.01750826
0000d0 31 e1 4d bd 8d 36 db bd 7a 61 ab bd 93 b5 de 3a
       -0.050263587 -0.10703764 -0.083682016 0.0016991369
0000e0 4e dc 83 bd 01 ef 90 3d 8f a3 9d bd 64 69 c0 bb
       -0.06438504 0.070768364 -0.07697212 -0.0058719385
0000f0 53 12 c5 bc 4c 07 bc bd f0 45 5b be b6 5f 2f bc
       -0.02405659 -0.09181079 -0.21413398 -0.010703972
000100 1f 20 24 be b6 a3 71 be 5e 10 72 bd 99 ab 0c be
       -0.16027878 -0.23597607 -0.05909764 -0.13737334
000110 3a c1 88 bd ee 25 fa bc 9b b0 64 bd 41 3b 09 bd
       -0.0667748 -0.030535664 -0.055832487 -0.033503775
000120 57 6a 03 3c 9e 08 81 be 6c 61 63 3d 80 f4 9d bd
       0.008020959 -0.25201887 0.05551283 -0.0771265
000130 79 e5 6c bd 3a a8 97 bd e2 5d 25 be 26 28 78 bd
       -0.05783603 -0.074051335 -0.16149095 -0.060585164
000140 7c b9 8e 3c fa 2d 75 bc 8f f5 a6 bc 2f 7a c7 3b
       0.01742243 -0.014964575 -0.020380763 0.0060875635
000150 22 ca 46 bd f1 cc ed bd 6c aa a0 3d 85 81 58 3c
       -0.048532613 -0.11611355 0.078450054 0.013214474
000160 c5 61 aa b9 f4 3e b8 3c 5b 52 6c bd 9b e2 e6 bb
       -0.0003249777 0.022490956 -0.057695728 -0.0070460564
000170 76 5a cb bd 8d 34 81 bc 76 28 2c bd 69 de 80 3d
       -0.099293634 -0.015772128 -0.042030774 0.06292421
000180 ed cd 3a bd f8 97 5d bd ec b6 ee bc 77 f7 98 bb
       -0.045606542 -0.054100007 -0.029139958 -0.004668172
000190 35 53 2e bd 19 39 0d be bc 34 cd bd e2 ab 8a bd
       -0.04255982 -0.13791312 -0.10019824 -0.06771065
0001a0 d9 8a 0b be 09 7d d1 bd bc 6e d2 bd 4b d3 7b bd
       -0.13627185 -0.10228927 -0.10275027 -0.0614808
0001b0 f1 2f 2e 3b 0d 94 b6 b8 ef ef 54 be 7e 2a a4 bc
       0.0026578868 -8.706013e-05 -0.20794652 -0.020039793
0001c0 a4 5f 33 be 58 75 eb bc 10 b4 f1 bd ae dd 40 3c
       -0.17516953 -0.028742477 -0.11801922 0.011771603
0001d0 c2 dc 2b bd fc 5d fd bb 72 f3 0b 3d c9 79 89 3d
       -0.041958578 -0.007732151 0.034167714 0.06712682
0001e0 16 89 95 bd 13 a5 6c 3c db 96 aa bd 3b 96 c7 bd
       -0.07301538 0.014443654 -0.08329555 -0.09745451
0001f0 6d 56 be bd 65 4d d4 3c 28 d9 e5 bd 97 6c b7 bd
       -0.09293828 0.02591581 -0.1122306 -0.08956259

weight f4 [12, 128]
000000 38 bb d9 3c 6e f2 0f 3c ff 73 0c 3d 0c df f6 3c
       0.02657853 0.008785827 0.03429031 0.030135654
000010 0b fd 6e bd ed 28 b6 bc dc 08 c6 3c 00 86 18 bc
       -0.05834679 -0.022236312 0.024174146 -0.009309292
000020 46 83 da 3c dd 1d db 3d cc ac dc bc e1 1b 35 bd
       0.026673924 0.10699055 -0.026937865 -0.04421604
000030 90 a7 5b 3c b8 d0 6f bd 26 39 d4 3c dd d8 c1 3c
       0.013406649 -0.05854866 0.025906157 0.023662979
000040 2d db 99 bc 41 e3 97 bc 53 f6 27 3d db 76 59 3d
       -0.018781269 -0.01854098 0.041006397 0.053091865
000050 ba 92 6f bd 3b 81 ca 3b d4 0f b0 bc 79 e9 32 3d
       -0.05848954 0.0061799563 -0.021491922 0.043679688
000060 52 99 b1 3c 73 bf 99 3c 47 c4 94 3a 7b 90 6e 3d
       0.021679554 0.018768048 0.0011349999 0.058243256
000070 d2 4d e8 bc 8f 07 94 bc 3a 78 d3 bd f8 91 90 3c
       -0.02835742 -0.01807001 -0.10325666 0.017647728
000080 8e 19 26 bd b1 a2 0d bc f6 9e e1 bb 97 bb 07 3d
       -0.040551715 -0.008644746 -0.0068854047 0.033137884
000090 4a 6b 7e bd 18 0f 83 3d e3 c0 46 3a 22 3b af 3a
       -0.062114038 0.06399363 0.0007581843 0.0013369063
0000a0 17 aa 24 bc 24 98 31 bc 3c 41 c0 bd 60 06 5e bc
       -0.010050318 -0.010839496 -0.093874425 -0.013551325
0000b0 24 95 4a bc bc a3 2b bd 2a c6 f2 3c c7 f2 03 bd
       -0.012364659 -0.041904196 0.029635508 -0.032213952
0000c0 2e 2c bf bc 8a 89 4e bc 25 9f ce bc 5f a0 b0 3c
       -0.023336496 -0.012606034 -0.02522237 0.021560846
0000d0 3b 2f 05 3c 35 0c 4f bd 83 27 85 3d 09 42 36 bb
       0.008128936 -0.05054875 0.06501677 -0.0027810356
0000e0 02 4b e9 bb 76 bf cb 3d 6c 6d 37 3c a1 72 35 3d
       -0.0071195373 0.09948628 0.011195522 0.04429877
0000f0 55 3f bb 3c 93 44 62 bb b9 7e 25 3c 58 73 b5 bc
       0.022857348 -0.0034525737 0.010101014 -0.022149727
000100 cf 3e 78 3c d4 f0 57 ba d0 72 59 bd e9 f5 9d bd
       0.0151516935 -0.00082374853 -0.05308801 -0.07712919
000110 34 0c bf bc 00 3f 10 3d b3 d9 2c bd 12 ee a2 bb
       -0.023321249 0.03521633 -0.0421998 -0.004972228
000120 09 29 2f 3d 4b d8 65 3d bd 7e 2a 3c 96 f9 1c bc
       0.042763744 0.056114476 0.010406193 -0.00958099
000130 ab dc a3 3a 47 4d b5 bc df 15 57 bd 4a e6 24 bd
       0.0012501677 -0.022131575 -0.052511092 -0.040258683
000140 cb 9f 5e bd 44 20 9e 3c a9 a1 42 bc 55 57 8d bb
       -0.05435161 0.019302495 -0.011879363 -0.0043133893
000150 91 3f 9e bc 16 26 87 3c c2 b9 97 3b 13 8b 46 bb
       -0.01931742 0.016497653 0.0046302984 -0.0030295297
000160 fb 45 a3 3c 6a c9 31 3d 06 31 ac bb 20 6a c5 3c
       0.01993083 0.043404974 -0.0052548675 0.024098456
000170 5a 1f 0c bd 18 fe 13 3d 1f e6 26 bd 10 50 02 bd
       -0.034209587 0.036130995 -0.040746804 -0.031814635
000180 72 e8 8a bd 86 f8 fc 3c 26 1a cc 3c ec 2e 0d bd
       -0.06782617 0.030880224 0.024914812 -0.034468576
000190 c7 45 36 bd 12 8d 65 ba e7 6e 0d b9 84 e8 b4 3c
       -0.04450014 -0.0008756678 -0.00013488122 0.022083528
0001a0 41 7f 9e 3b 9f f4 34 3c 85 fa 0b 3d 37 ad 5b bd
       0.004836947 0.01104465 0.03417446 -0.053631987
0001b0 84 33 24 3c 3b fe 57 3d 14 cb a4 bd 8b a8 a8 3c
       0.010022048 0.052732687 -0.080465466 0.02058818
0001c0 21 9b ef bd 8f 1d 10 3d d0 39 03 bc 34 e9 f6 bc
       -0.1169951 0.03518444 -0.008009389 -0.030140497
0001d0 08 37 14 bd 58 fd 0c bd 97 d6 21 ba b7 72 e1 3a
       -0.036185294 -0.034421295 -0.0006173639 0.0017200325
0001e0 31 56 c7 bb 41 11 c3 3c 9b ec e5 3c 7e 68 1d 3c
       -0.006083273 0.023811938 0.028066924 0.009607432
0001f0 cf b9 dd bc f4 d1 f3 3b a9 e6 53 bd d7 b5 51 ba
       -0.02706614 0.0074408 -0.051733647 -0.00079998135
000200 c0 e2 67 bc 77 62 19 3b 9c 45 a4 bb ef 41 bc 3d
       -0.0141531825 0.0023404637 -0.005013181 0.09192263
000210 a6 5a 0b bd ea 0d 43 3d 93 51 8e 3d 2e 90 17 3d
       -0.034021996 0.04762069 0.06949153 0.037002735
000220 fd a2 73 bc ab 39 bf bd 3c c2 1c 3c 46 f1 66 3a
       -0.014870402 -0.09337171 0.009567793 0.0008809756
000230 d5 57 d9 3c 29 82 31 bd 81 ab 94 bd 73 18 f9 bb
       0.02653114 -0.04333702 -0.07259274 -0.0076017915
000240 53 0e e3 3a 89 1f 09 bd 1d fd d8 3d f4 eb cb bc
       0.0017322995 -0.03347734 0.105951525 -0.024892785
000250 1d 97 24 3c f7 45 b2 3c 5b 08 bc bc 1a ef fa bc
       0.010045794 0.021761877 -0.022953203 -0.03063159
000260 53 18 fe ba 6c d6 22 3c 47 f4 a1 3d 38 ce bd bc
       -0.0019385911 0.0099388175 0.0790792 -0.023169622
000270 75 ac 1c 3d 5f 97 c1 bc b7 d4 94 bc 88 be 85 bd
       0.038250405 -0.02363175 -0.018167837 -0.065304816
000280 c2 d8 25 3d b4 ef cf 3c 8b 76 ae bb 89 92 7c 3d
       0.04048992 0.025382854 -0.00532419 0.061663184
000290 7a 2b c3 3a 6c c4 0b bc 8e 50 ed 3b b5 ea a3 bc
       0.0014890276 -0.008530717 0.007242269 -0.020009378
0002a0 ca 98 25 3d 3b fd c2 bc a2 19 c9 3b ca 7c 35 3d
       0.040428914 -0.02380239 0.006137089 0.04430846
0002b0 86 7d 29 bc d7 29 27 be a3 f4 19 bd 98 4a 76 3d
       -0.0103448685 -0.16324554 -0.03758682 0.060129732
0002c0 66 a8 4e bc da df df bc d7 b9 0d bd d5 69 16 bd
       -0.0126133915 -0.02732842 -0.03460106 -0.036722023
0002d0 f3 72 87 bc e5 f4 87 bd 07 82 17 bc 39 48 30 3d
       -0.016534304 -0.06638507 -0.0092473095 0.043037627
0002e0 45 64 9d 3b ff 99 a0 bc 9a eb 9b 3c ad 2c bf ba
       0.004803213 -0.019604681 0.019033242 -0.0014585458
0002f0 7a 5c 78 3c 2d db 83 bc 65 fd 9c bc b5 2d 2d 3d
       0.015158767 -0.016095722 -0.019163797 0.042279918
000300 88 5d 02 3c 09 8e 1b bd ff c3 0f be 3a 5d c3 3b
       0.00795687 -0.037977252 -0.1403961 0.005962041
000310 48 1b 5e bd 24 79 cb 3c a1 a3 ff 3c 51 2f 2c 3d
       -0.054225236 0.024838038 0.031205954 0.042037312
000320 a0 9e 40 bc bb 98 b4 3d f7 af c7 bc 37 7c 3c 3a
       -0.011756569 0.088181935 -0.024375899 0.00071901403
000330 52 51 53 3d 5f 9f 8e 3d b8 09 a3 bc ec 56 30 bd
       0.051591225 0.069639914 -0.019902095 -0.043051645
000340 23 10 22 3c 7e 78 34 bd 53 0b 9d 3c 0e ce aa bd
       0.009891543 -0.044060223 0.019170439 -0.08340083
000350 95 90 27 3a c8 c0 91 bd 2b e5 e5 3b 37 89 f1 bd
       0.0006392089 -0.07116848 0.0070158443 -0.1179375
000360 12 17 16 3d 93 32 8c 3d df 57 e0 bc cc f4 87 bd
       0.036643095 0.06845584 -0.02738565 -0.06638488
000370 01 08 10 3d ac 02 9d 3d cd c3 c7 3d 32 2d 91 bc
       0.035163883 0.07666525 0.09754143 -0.017721746
000380 1c 95 c7 bc 4a 14 9d 3d 2a c9 14 bc 75 73 93 3d
       -0.024363093 0.076698855 -0.009081164 0.07199756
000390 6c 1a 78 bd a7 24 64 bc a5 89 a2 bc eb cb 2c bd
       -0.060572073 -0.013924754 -0.019841025 -0.04218666
0003a0 9c 0b 07 be df c9 a5 3b 25 1a e2 3c 99 35 ad bd
       -0.13188022 0.0050594653 0.027600357 -0.084574886
0003b0 cf 0d 64 bc 73 56 51 3d 45 85 ea 3d c3 f2 b5 bc
       -0.013919308 0.051107835 0.114512004 -0.022210484
0003c0 97 16 5d bc d5 76 9e bc 43 da 87 3d aa 78 3a 3d
       -0.013494155 -0.019343773 0.06633427 0.04552523
0003d0 d1 e5 52 3d 90 d6 bb 3c 9f c9 1a bd 42 e8 42 3d
       0.0514887 0.02292946 -0.037789937 0.04758478
0003e0 fa 26 5a bc 2f 30 b3 3c a4 db 8f 3d 8b c5 92 bc
       -0.013314957 0.021873562 0.07024315 -0.017916461
0003f0 f0 a4 d8 bd 3a 5e ee 3d 6c c3 57 bd 85 89 24 3d
       -0.10578334 0.11639066 -0.052676603 0.04017021

bias f4 [12]
000000 3b b6 bc bd 80 20 91 3d 91 af b9 bc 2e 8c 1b 3d
       -0.09214445 0.07086277 -0.022666724 0.037975483
000010 7a 51 7f 3d 99 98 97 bd 3e 89 a0 3c 04 a7 21 3e
       0.06233356 -0.074021526 0.019596692 0.15786368
000020 b3 ca a1 3c 02 01 89 3c 7a ab 36 3e 82 33 8b 3d
       0.019749975 0.016724113 0.1783885 0.06796934
