policy-storage/go1_flat-Aug25_09-48-17_-jitted.pt (torch, 775124 bytes, 8 tensors)

weight f4 [512, 48]
0.0069722724 0.034933172 0.14660025 0.015221565 0.011792219 0.05061021 0.16117746 -0.44828203
0.11383724 -0.05977249 0.027937107 0.3890769 0.03979384 0.46438542 -0.05875148 0.13190575
0.3965953 -0.32328534 -0.36815104 0.18195024 0.34230328 0.07293684 0.32544518 0.06574379
-0.06536551 0.026890295 -0.11517679 0.092883326 -0.35770404 0.066503376 0.3842888 0.023313075
0.08466631 -0.32615063 -0.07089132 0.12195116 -0.008783098 -0.0354022 0.05698403 -0.027219461
-0.06858493 0.0020183595 0.085351855 0.053389415 -0.02420619 0.028905343 -0.040426396 -0.02571928
0.06814994 -0.0089278 -0.0046822694 -0.10065537 0.28668705 0.0029069318 0.19489427 -0.06821174
0.06725238 -0.0753482 -0.13513957 -0.25847062 0.13307086 0.072599426 -0.07400111 -0.058781195
0.2774604 0.06816046 -0.23274124 0.067652516 -0.08447901 0.06994607 -0.13309668 -0.21578844
0.044958867 -0.06340502 0.06612807 0.106773995 -0.0672156 0.13495855 -0.038598713 0.19756289
0.09544753 -0.16922641 -0.07823475 0.008813205 -0.012240455 -0.021192849 0.0029116936 -0.013231039
0.08047477 0.005340746 -0.03890122 -0.05547901 -0.10394423 -0.034313276 0.05226432 -0.012285919
-0.025535692 -0.025609195 -0.07279683 0.10652031 0.018893577 0.21804614 0.2934422 -0.4485165
0.11742419 -0.047651395 -0.019396972 -0.026643893 -0.036199763 -0.07514957 0.34011334 0.25127763
-0.1635846 -0.26493317 -0.044027526 -0.22235252 0.18616161 -0.16921824 0.07235708 0.5062809
0.06428352 -0.015222894 -0.034778208 -0.14027639 -0.23717286 -0.031620786 0.08781673 0.19566257
-0.14595084 0.031927902 0.012848187 -0.1432924 -0.0062028198 0.010964564 -0.1313698 0.027218798
0.09217792 0.052417975 -0.048122052 0.010467814 -0.03837902 -0.11573207 0.07210451 0.016253823
-0.1871279 0.101476826 -0.048800927 0.013434362 -0.1640233 0.11055328 0.20859176 -0.30868953
-0.027609674 0.04572147 -0.10531765 0.06510484 0.19241303 -0.4461135 0.13880119 0.19354641
-0.015830874 -0.18264179 -0.25148886 0.2126414 0.24911872 0.009703174 -0.53187746 0.3097873
-0.1393952 -0.09104636 -0.29722494 0.06354057 -0.14607672 0.041340377 -0.14371698 0.029020093
-0.039164227 -0.032618567 -0.19573572 -0.10820485 0.10879641 -0.023666313 -0.12376271 0.18163408
-0.025473416 0.009337359 -0.06740819 0.010375316 -0.002399252 -0.0021586802 0.024486678 -0.065807335
0.046027362 0.0074908263 -0.030368062 -0.0729668 -0.1670497 0.13690758 -0.20449749 0.5732802
0.06658928 0.040037386 -0.012770144 -0.040580634 -0.24451211 0.2515639 0.0016166054 -0.2601319
0.04659148 0.18128535 -0.065004885 -0.23694289 0.44923714 -0.12756747 -0.35130253 0.42534873
0.09843302 0.17724663 -0.2860959 -0.07289569 -0.0003303409 -0.12594157 0.11505874 -0.19710152
0.15969302 0.01192126 -0.4793824 0.22337672 -0.024175765 -0.05267751 0.0394593 -0.037185617
0.0031462002 -0.036061443 -0.044745456 -0.03808516 0.011075387 0.010307137 0.033906747 -0.114270195
0.15377699 -0.0015180481 -0.0038696274 0.06308829 -0.022282531 -0.008389487 0.075825326 0.05639487
0.097590744 -0.04452476 -0.11195945 0.010275498 0.26506457 0.072580546 0.18006822 0.36502022
00000000: a977 e43b 1616 0f3d 601e 163e df63 793c
00000010: 2734 413c a74c 4f3d b40b 253e 3985 e5be
00000020: 8023 e93d 00d4 74bd 5cdc e43c 1635 c73e
00000030: defe 223d edc3 ed3e 64a5 70bd 4d12 073e
00000040: 8a0e cb3e a885 a5be 4b7e bcbe 2a51 3a3e
00000050: 6042 af3e e95f 953d c0a0 a63e aea4 863d
00000060: 5ade 85bd 0949 dc3c cfe1 ebbd 9d39 be3d
00000070: fc24 b7be ec32 883d 80c1 c43e 10fb be3c
00000080: 8865 ad3d 37fd a6be 782f 91bd 88c1 f93d
00000090: fce6 0fbc e601 11bd 1668 693d 59fb debc
000000a0: 4176 8cbd 7446 043b f4cc ae3d dcae 5a3d
000000b0: 0f4c c6bc e6ca ec3c 2696 25bd 3db1 d2bc
000000c0: 3292 8b3d e845 12bc b96d 99bb 6724 cebd
000000d0: a5c8 923e 3982 3e3b 5d92 473e 99b2 8bbd
000000e0: 9ebb 893d 2850 9abd 0762 0abe 4356 84be
000000f0: ba43 083e 02af 943d e58d 97bd 8dc4 70bd
00000100: 4a0f 8e3e b697 8b3d b853 6ebe 678d 8a3d
00000110: 5503 adbd e33f 8f3d 7f4a 08be a5f7 5cbe
00000120: ca26 383d 7eda 81bd 276e 873d 53ac da3d
00000130: 55a8 89bd 9332 0a3e af19 1ebd ed4d 4a3e
00000140: ff79 c33d b049 2dbe 8a39 a0bd 4365 103c
00000150: 308c 48bc a09c adbc 1dd2 3e3b 00c7 58bc
00000160: f5cf a43d 6d01 af3b e356 1fbd f53d 63bd
00000170: b6e0 d4bd 148c 0cbd 1d13 563d e14a 49bc
00000180: 3a30 d1bc 60ca d1bc 8116 95bd 5227 da3d
00000190: b4c6 9a3c 7d47 5f3e 0e3e 963e f4a3 e5be
000001a0: 187c f03d 1c2e 43bd 66e6 9ebc 4b44 dabc
000001b0: 3446 14bd 05e8 99bd 5623 ae3e 76a7 803e
000001c0: b982 27be 52a5 87be 3556 34bd 61b0 63be
000001d0: 26a1 3e3e 8c47 2dbe f32f 943d a09b 013f
000001e0: 14a7 833d 7269 79bc 9873 0ebd 9da4 0fbe
000001f0: 71dd 72be cc84 01bd 42d9 b33d c55b 483e
00000200: 2374 15be d5c6 023d 3481 523c 3ebb 12be
00000210: 0641 cbbb b7a4 333c ce85 06be f5f9 de3c
00000220: c7c7 bc3d 3bb4 563d a11b 45bd 3281 2b3c
00000230: 5233 1dbd ef04 edbd 88ab 933d bd26 853c
00000240: 759e 3fbe 15d3 cf3d 7be3 47bd cc1b 5c3c
00000250: b9f5 27be c269 e23d 1499 553e 8e0c 9ebe
00000260: af2d e2bc 7046 3b3d c8b0 d7bd b055 853d
00000270: ec07 453e fd68 e4be e621 0e3e 0831 463e
00000280: c0af 81bc 7306 3bbe 26c3 80be abbe 593e
00000290: fa18 7f3e 10fa 1e3c 1f29 08bf 719c 9e3e
000002a0: 9ebd 0ebe 8476 babd de2d 98be 8f21 823d
000002b0: 2395 15be 8754 293d 8b2a 13be 8cbb ed3c
000002c0: ab6a 20bd 0c9b 05bd f26e 48be 819a ddbd
000002d0: a7d0 de3d dbdf c1bc 4e77 fdbd 49fe 393e
000002e0: a0ad d0bc b9fb 183c 4e0d 8abd 3bfd 293c
000002f0: c53c 1dbb a578 0dbb 4998 c83c ffc5 86bd
00000300: 3087 3c3d 9b75 f53b 71c6 f8bc 9e6f 95bd
00000310: 140f 2bbe 8031 0c3e ca67 51be 7ec2 123f
00000320: f65f 883d 3efe 233d de39 51bc e137 26bd
00000330: 6261 7abe fccc 803e 47e4 d33a 0230 85be
00000340: b5d6 3e3d dea2 393e 4821 85bd 28a1 72be
00000350: 6902 e63e 0ca1 02be eddd b3be 4fc7 d93e
00000360: 4097 c93d 2480 353e 297b 92be 564a 95bd
00000370: 9b31 adb9 d4f6 00be eba3 eb3d fbd4 49be
00000380: 9186 233e 6351 433c 9c71 f5be debc 643e
00000390: 410c c6bc 5fc4 57bd 13a0 213d f24f 18bd
000003a0: 7b30 4e3b 2ab5 13bd 0347 37bd 2fff 1bbd
000003b0: 8a75 353c 44df 283c cde1 0a3d 7e06 eabd
000003c0: b777 1d3e 3ef9 c6ba 9399 7dbb 6f34 813d
000003d0: db89 b6bc 0f74 09bc 4f4a 9b3d 4ffe 663d
000003e0: a8dd c73d 985f 36bd ff4a e5bd 905a 283c
000003f0: 8bb6 873e 1ca5 943d ce63 383e eee3 ba3e

bias f4 [512]
-0.1765048 -0.23420775 0.09287431 0.047827262 0.095193416 -0.25022298 -0.17144927 -0.122608475
0.07506582 0.067710295 -0.1032703 0.13879433 0.033204045 0.14472234 -0.08149288 -0.1805679
-0.093969755 0.06730889 -0.112899765 0.17412926 -0.06512084 -0.10762418 -0.18540742 -0.07269775
-0.0721368 0.123905145 -0.08794834 0.15154119 0.074165 0.14050066 0.0050538545 -0.14368446
-0.14354602 -0.065617196 -0.11039637 0.09613159 0.050878994 0.076746635 0.121968426 -0.041461516
0.11282172 -0.11582183 -0.025718452 0.11888059 -0.064431615 0.019436853 -0.1995934 -0.16929416
-0.006338577 0.10183875 -0.06054886 -0.014413461 0.18228908 -0.08430558 -0.114492655 0.033306703
0.06383136 -0.11213422 0.05622515 -0.04415865 0.008789321 0.011114469 0.06309056 0.13679565
-0.1805387 0.089274324 0.09726739 0.029158225 0.074750446 0.08922313 -0.13535321 -0.11381332
-0.06624455 0.017249666 -0.14740516 0.004053047 -0.099705696 -0.12536441 0.13141875 -0.17352636
0.04738931 0.13496502 0.03902264 -0.013030516 -0.09572877 0.10262065 -0.0066338736 -0.03509709
-0.2001448 0.014750325 -0.065034874 0.115122624 0.004459567 -0.17237039 0.010811026 -0.09141765
-0.04853967 0.05556655 -0.1305858 -0.04301462 -0.113915 -0.035811897 -0.036282346 -0.04496193
0.09267147 -0.100168616 -0.12161371 -0.05937108 -0.05655431 -0.028157959 0.07052291 -0.1934742
-0.0031541877 -0.14352809 0.08267034 -0.12050389 0.18020883 -0.034765843 0.16569851 0.010418551
-0.07954931 -0.11727201 -0.113195665 0.025342695 0.0101971505 -0.15968688 0.10444928 -0.14557281
-0.14587404 -0.16489008 0.06694716 0.0032208615 0.07026979 -0.08085557 0.008505846 0.086187765
-0.10443946 -0.0016133076 0.19932954 0.015641186 -0.25768557 0.14348213 -0.0010686365 -0.049753945
0.024981659 0.106982864 0.07373612 -0.01057038 -0.13335137 0.0754677 -0.037514634 -0.11086929
-0.012490238 -0.16704154 -0.10623056 -0.044099476 0.0838718 -0.19575073 0.18500845 0.01741361
-0.04581348 0.04173402 -0.12882999 -0.10603348 -0.18232043 -0.0367989 -0.22087152 0.12073964
-0.18869673 -0.03943382 -0.23429202 -0.07027404 -0.16456392 0.13992034 -0.057758566 -0.23285249
-0.10160623 -0.14782682 -0.2344068 -0.18635762 -0.1618265 -0.035246823 0.11576305 -0.18733972
-0.104399584 0.09575764 -0.23752744 -0.08880305 0.09853318 -0.12801063 -0.069143094 -0.09475853
0.11946955 -0.030114831 -0.08790813 -0.0017195872 -0.055386476 0.06525259 0.191043 -0.08903851
-0.0070096725 0.1296448 0.14692476 -0.12317175 -0.10957573 -0.14894931 -0.06279612 0.111218
-0.07867136 -0.21567656 0.100119725 -0.024278454 -0.0611968 0.006222273 -0.09833651 -0.053247966
-0.032127097 -0.14777564 -0.07621998 -0.05130987 0.11624497 0.06770924 0.014155617 -0.08440294
0.10311078 -0.07043838 0.08776044 0.11140398 -0.11786017 -0.21990754 0.09705075 -0.014111629
-0.10448911 -0.14160198 -0.12730882 0.10555351 0.17936608 -0.19950238 -0.1290325 0.16370691
0.035192117 -0.025017252 -0.20357941 -0.0109599335 -0.15781778 0.02429858 -0.11374138 -0.040170673
-0.11081205 -0.09505694 -0.008867134 -0.107230216 0.065100424 0.14091034 0.039918803 0.09434278
00000000: adbd 34be 28d4 6fbe e334 be3d 85e6 433d
00000010: c4f4 c23d 3a1d 80be 6690 2fbe 271a fbbd
00000020: 1cbc 993d b2ab 8a3d 617f d3bd 1a20 0e3e
00000030: f700 083d 1832 143e bde5 a6bd cbe6 38be
00000040: 3773 c0bd 3ed9 893d fe37 e7bd f14e 323e
00000050: 135e 85bd 116a dcbd 71db 3dbe 8fe2 94bd
00000060: 75bc 93bd fbc1 fd3d 421e b4bd 9d2d 1b3e
00000070: d2e3 973d 68df 0f3e ce9a a53b 0522 13be
00000080: bafd 12be 4f62 86bd 7e17 e2bd a4e0 c43d
00000090: 7e66 503d 572d 9d3d 95ca f93d 8dd3 29bd
000000a0: 130f e73d ff33 edbd 81af d2bc ab77 f33d
000000b0: b9f4 83bd 093a 9f3c 3662 4cbe 735b 2dbe
000000c0: d6b3 cfbb d690 d03d 1502 78bd 7026 6cbc
000000d0: fda9 3a3e 67a8 acbd 207b eabd 9c6c 083d
000000e0: 04ba 823d a0a6 e5bd 584c 663d b3df 34bd
000000f0: 1601 103c 7619 363c a035 813d 2914 0c3e
00000100: 23df 38be 75d5 b63d 2034 c73d 3bdd ee3c
00000110: c316 993d 9eba b63d 089a 0abe f516 e9bd
00000120: 39ab 87bd 2c4f 8d3c 61f1 16be 6ccf 843b
00000130: 8032 ccbd 875f 00be a392 063e e5b0 31be
00000140: 4b1b 423d 4534 0a3e 34d6 1f3d f27d 55bc
00000150: 720d c4bd c62a d23d f760 d9bb f7c1 0fbd
00000160: c2f2 4cbe 59ab 713c 0131 85bd 69c5 eb3d
00000170: 8f21 923b dd81 30be bb20 313c 2d39 bbbd
00000180: 88d1 46bd c099 633d 49b8 05be 1930 30bd
00000190: 444c e9bd 7faf 12bd cc9c 14bd 002a 38bd
000001a0: 8aca bd3d 3425 cdbd 9c10 f9bd 172f 73bd
000001b0: 7ea5 67bd 85ab e6bc 516e 903d 1a1e 46be
000001c0: 7db6 4ebb 07f9 12be 114f a93d beca f6bd
000001d0: aa88 383e a166 0ebd dfac 293e 92b2 2a3c
000001e0: c0ea a2bd 4f2c f0bd 21d3 e7bd 7c9b cf3c
000001f0: f311 273c f584 23be 81e9 d53d 0a11 15be
00000200: 0160 15be f2d8 28be 981b 893d 1715 533b
00000210: 9ce9 8f3d 9b97 a5bd 1b5c 0b3c 3683 b03d
00000220: 5be4 d5bd 9f75 d3ba 0b1d 4c3e f221 803c
00000230: 5def 83be fbec 123e 7e11 8cba cbca 4bbd
00000240: 56a6 cc3c d519 db3d f602 973d 632f 2dbc
00000250: 438d 08be cf8e 9a3d f2a8 19bd 700f e3bd
00000260: dba3 4cbc f00c 2bbe 688f d9bd a7a1 34bd
00000270: fac4 ab3d e172 48be db72 3d3e fda6 8e3c
00000280: eaa6 3bbd 4bf1 2a3d 02ec 03be 1528 d9bd
00000290: 35b2 3abe 72ba 16bd 252c 62be 5846 f73d
000002a0: b739 41be 5b85 21bd 3fea 6fbe d6eb 8fbd
000002b0: 7283 28be 4747 0f3e 3f94 6cbd e270 6ebe
000002c0: ed16 d0bd ea5f 17be 5608 70be 88d4 3ebe
000002d0: d9b5 25be f95e 10bd 2e15 ed3d fcd5 3fbe
000002e0: 73cf d5bd 951c c43d 653a 73be 60de b5bd
000002f0: c4cb c93d 3815 03be e59a 8dbd c310 c2bd
00000300: 74ac f43d 61b3 f6bc 2d09 b4bd c663 e1ba
00000310: eedc 62bd 26a3 853d c7a0 433e d359 b6bd
00000320: 65b1 e5bb 9bc1 043e 7273 163e 7841 fcbd
00000330: 3e69 e0bd 2b86 18be 419b 80bd 43c6 e33d
00000340: 731e a1bd 51da 5cbe 920b cd3d 9ce3 c6bc
00000350: 7fa9 7abd 36e4 cb3b a764 c9bd 8a1a 5abd
00000360: b497 03bd 7f52 17be 3919 9cbd 4c2a 52bd
00000370: d811 ee3d 24ab 8a3d f6ec 673c 73db acbd
00000380: bf2b d33d ff41 90bd bfbb b33d c527 e43d
00000390: ac60 f1bd 712f 61be 8bc2 c63d 7634 67bc
000003a0: 63fe d5bd 1c00 11be 3e5d 02be 702c d83d
000003b0: beab 373e 5a4a 4cbe 1821 04be c9a2 273e
000003c0: 9c25 103d fbf0 ccbc 1f77 50be 4b91 33bc
000003d0: fc9a 21be d10d c73c 3ef1 e8bd 018a 24bd
000003e0: 6ef1 e2bd 37ad c2bd 7547 11bc 849b dbbd
000003f0: 5f53 853d cd4a 103e e681 233d ca36 c13d

weight f4 [256, 512]
0.08642141 0.07331911 -0.0497094 -0.10300983 0.04688763 0.038112827 -0.052382518 -0.06629865
-0.05232394 -0.051953346 0.026244137 0.024913728 -0.034411006 0.049767748 0.08037155 0.053782403
0.09705324 -0.08063692 0.01848274 -0.06356769 -0.10852792 0.053560015 0.022768153 0.02686445
0.0023717755 0.015486023 -0.022034816 -0.037392978 0.097885795 0.0015369125 0.020147564 -0.048751257
0.012926565 0.036956877 0.11866357 -0.07971318 -0.03609984 0.07145214 0.033159375 -0.09207701
-0.02486394 -0.03254624 0.014111115 -0.05678436 0.1489457 -0.008830837 -0.015731173 0.03153083
-0.0006580838 -0.09765792 0.054975055 -0.04234129 -0.07837528 0.031221438 -0.04705037 -0.01200156
-0.019461967 -0.053976048 0.05540079 -0.050413672 0.03659143 0.07332593 -0.095686644 0.010404841
0.005085897 -0.04699563 -0.080910906 -0.106631406 -0.011156662 0.05069752 0.06460338 0.07990069
-0.035580717 0.016309809 0.061006695 0.06819472 0.10690057 -0.008267091 -0.034155056 0.096315295
-0.0690188 -0.06960142 0.020785047 0.034064658 -0.09472949 -0.05862356 0.06395666 0.024511209
-0.04356701 -0.045489535 0.095690005 -0.043215167 -0.006076005 -0.052337132 0.1455294 0.046940714
-0.04397454 -0.03159824 -0.2075744 -0.024966687 -0.05794382 0.1314391 -0.047860447 -0.0155891115
-0.010077429 -0.11401668 0.07316648 0.124893166 -0.01882158 0.08319276 0.023676356 -0.049901947
0.024103878 0.00084499584 0.015883934 0.061536208 -0.016688988 0.08566592 -0.048061855 -0.008303599
-0.012706591 0.06770596 0.025596283 -0.06377205 0.021354912 0.05611279 -0.029766152 -0.03040534
-0.094153434 0.05963232 0.05836213 0.05974766 -0.078474514 -0.008804458 0.06809146 -0.07917871
-0.055201713 -0.02243014 -0.02050459 0.061416704 0.14782262 0.12495883 -0.080168046 -0.023872185
0.08813281 0.010354711 0.12777215 -0.07527311 -0.07450689 -0.07226336 -0.030116225 -0.00033633836
0.12678635 -0.035691284 -0.07591358 0.030580949 -0.06708576 -0.007842378 0.015747774 0.015614038
-0.013175452 0.0478399 -0.04383852 -0.07422825 -0.039761964 -0.024596488 -0.011310533 -0.09268394
0.06623399 0.01705549 0.06510981 0.12078812 -0.098377 0.0367495 0.047341857 -0.017496102
0.08059491 0.049923442 -0.15185425 0.0015166878 0.023892092 0.18663369 0.08449198 0.13695645
0.124272175 0.0011247722 -0.08550693 0.052896153 -0.11764278 -0.03737705 0.0057793953 -0.017668258
0.024162924 -0.03806911 0.037684273 -0.04902338 0.029518282 -0.020447008 0.018744782 -0.012683253
-0.04975068 -0.06150409 -0.01296628 0.08516565 -0.005500896 -0.10188694 0.1377579 -0.035586186
0.015928252 -0.17609137 -0.010876503 0.03283172 0.105464205 0.06339858 -0.106782876 0.024406927
-0.013318701 -0.0010043216 0.0900438 0.111157976 -0.035048764 -0.09658416 0.03331075 -0.006264136
0.06756827 0.025746264 -0.095371 -0.05899641 -0.054933935 -0.07130662 0.043974947 -0.03891732
-0.05295343 -0.037613023 -0.073096395 -0.04930851 0.06422622 -0.031288248 -0.0058166333 0.062412202
0.06910754 0.014962476 0.0711139 -0.12653838 -0.002034045 -0.023812544 -0.09476063 0.0533888
-0.10525438 -0.09665134 -0.024099316 -0.029866258 -0.03587038 0.0010110813 0.029118558 0.010133929
00000000: b5fd b03d 5428 963d 159c 4bbd d1f6 d2bd
00000010: 3e0d 403d 321c 1c3d 0d8f 56bd 96c7 87bd
00000020: a151 56bd 08cd 54bd f2fd d63c e017 cc3c
00000030: 8ef2 0cbd 44d9 4b3d d799 a43d f04a 5c3d
00000040: d9c3 c63d f824 a5bd 1d69 973c c72f 82bd
00000050: e343 debd bf61 5b3d 4784 ba3c d612 dc3c
00000060: ca6f 1b3b 17b9 7d3c 5c82 b4bc 6129 19bd
00000070: 5978 c83d 3a72 c93a 810c a53c 66af 47bd
00000080: f1c9 533c 1860 173d e305 f33d aa40 a3bd
00000090: 6ddd 13bd 8055 923d 20d2 073d df92 bcbd
000000a0: 76af cbbc 354f 05bd 4e32 673c b896 68bd
000000b0: 3985 183e 37af 10bc a9de 80bc 7926 013d
000000c0: 4283 2cba e000 c8bd 862d 613d 0f6e 2dbd
000000d0: 3883 a0bd 1ac4 ff3c e4b7 40bd 31a2 44bc
000000e0: b46e 9fbc fd15 5dbd f0eb 623d 917e 4ebd
000000f0: e5e0 153d e82b 963d 5cf7 c3bd 1179 2a3c
00000100: 99a7 a63b 7d7e 40bd 9eb4 a5bd 9161 dabd
00000110: 6fca 36bc 34a8 4f3d c74e 843d f9a2 a33d
00000120: 16bd 11bd 269c 853c 28e2 793d aca9 8b3d
00000130: b0ee da3d b172 07bc 2ce6 0bbd f440 c53d
00000140: bb59 8dbd 308b 8ebd 6745 aa3c 6287 0b3d
00000150: 8901 c2bd 421f 70bd b6fb 823d bbcb c83c
00000160: 5273 32bd 3c53 3abd 1ff9 c33d 6302 31bd
00000170: 3919 c7bb 765f 56bd a905 153e e844 403d
00000180: a61e 34bd 286d 01bd 628e 54be f086 ccbc
00000190: 8056 6dbd f997 063e 5109 44bd 7969 7fbc
000001a0: cd1b 25bc 9481 e9bd 4fd8 953d fdc7 ff3d
000001b0: b72f 9abc f760 aa3d ebf4 c13c fc65 4cbd
000001c0: 7f75 c53c b682 5d3a 061f 823c 640d 7c3d
000001d0: 58b7 88bc 9d71 af3d 82dc 44bd d20b 08bc
000001e0: 4e2f 50bc 6ca9 8a3d 4caf d13c ec9a 82bd
000001f0: 7ff0 ae3c 86d6 653d 25d8 f3bc 9f14 f9bc
00000200: 84d3 c0bd 0541 743d 210d 6f3d f6b9 743d
00000210: 3fb7 a0bd 9340 10bc 8973 8b3d 7328 a2bd
00000220: 311b 62bd 6abf b7bc 3ef9 a7bc 1590 7b3d
00000230: d05e 173e 6aea ff3d 252f a4bd 9a8f c3bc
00000240: fa7e b43d cea6 293c b4d6 023e ca28 9abd
00000250: 1197 98bd d0fe 93bd 4db6 f6bc 9256 b0b9
00000260: 48d4 013e 0631 12bd 9478 9bbd e684 fa3c
00000270: 4264 89bd 517d 00bc 7a01 813c 06d2 7f3c
00000280: dadd 57bc c5f3 433d 0590 33bd fb04 98bd
00000290: 71dd 22bd 937e c9bc d04f 39bc 14d1 bdbd
000002a0: b0a5 873d f4b7 8b3c 4b58 853d c35f f73d
000002b0: e179 c9bd a586 163d 89e9 413d fc53 8fbc
000002c0: f20e a53d 867c 4c3d ae7f 1bbe 99cb c63a
000002d0: 59b9 c33c e71c 3f3e 220a ad3d 503e 0c3e
000002e0: 6982 fe3d 186d 933a 421e afbd a3a9 583d
000002f0: b3ee f0bd ad18 19bd 1561 bd3b 06bd 90bc
00000300: 53f1 c53c 5bee 1bbd d35a 1a3d bdcc 48bd
00000310: 53d0 f13c 7c80 a7bc a88e 993c 6bcd 4fbc
00000320: 5ec7 4bbd b6eb 7bbd 8570 54bc 546b ae3d
00000330: dc40 b4bb 1aaa d0bd 6810 0d3e d2c2 11bd
00000340: f77b 823c 4c51 34be 5c33 32bc 8e7a 063d
00000350: 9efd d73d 1dd7 813d fbb0 dabd 09f1 c73c
00000360: ae36 5abc 71a3 83ba e268 b83d cba6 e33d
00000370: 4b8f 0fbd ebcd c5bd da70 083d 6243 cdbb
00000380: 3c61 8a3d d4e9 d23c df51 c3bd 38a6 71bd
00000390: 6802 61bd 3509 92bd 131f 343d c567 1fbd
000003a0: b2e5 58bd 1d10 1abd 90b3 95bd b8f7 49bd
000003b0: 0989 833d 1b28 00bd 7599 bebb f0a3 7f3d
000003c0: 4188 8d3d 2c25 753c 2aa4 913d 4793 01be
000003d0: 9d4d 05bb 8612 c3bc dc11 c2bd 37ae 5a3d
000003e0: 9c8f d7bd 23f1 c5bd ee6b c5bc 15aa f4bc
000003f0: d2ec 12bd 4286 843a 0b8a ee3c c708 263c

bias f4 [256]
-0.06560396 -0.09103603 -0.015240781 -0.08112844 -0.1207049 -0.010286085 -0.07712546 -0.126518
-0.047039002 -0.13802709 -0.10813566 0.009005853 -0.028581798 -0.00926687 -0.060855083 -0.0061609303
-0.08857319 0.041581064 -0.14326909 -0.030448457 -0.04062577 -0.07134278 -0.063765645 0.0003880293
-0.099821076 -0.059436943 -0.13490814 -0.027563848 -0.04508132 -0.06686295 -0.17624663 -0.099281706
-0.017501052 0.0073797526 -0.158035 -0.027747516 -0.02696577 -0.08532039 -0.09226318 -0.026702184
-0.08296628 -0.1760261 -0.14715411 -0.11773616 -0.03778155 -0.08259083 -0.074224316 -0.11317394
-0.01088083 -0.062882416 -0.091308884 -0.100568205 -0.035274666 0.02085884 0.002761343 0.004300668
-0.0991006 -0.07970147 -0.06176944 -0.042836808 -0.047671907 -0.071322754 -0.020342063 -0.117597744
-0.12507913 -0.12988392 -0.08416878 -0.05658347 0.008441958 -0.06164299 0.054654416 -0.027888747
-0.00927548 -0.119407415 -0.07619197 -0.046847824 -0.034235116 -0.03254921 -0.14115845 -0.095570065
-0.07168348 -0.013097873 -0.06663016 -0.049918182 -0.16789266 -0.030241875 -0.12522623 -0.033963844
-0.08918065 -0.07012292 -0.025934026 -0.08647776 -0.015486086 -0.018423788 -0.15508027 -0.059969548
-0.09864152 0.030883124 0.017686121 -0.035554755 -0.10580882 -0.011065265 -0.11382464 -0.15878524
-0.055203862 -0.07063616 -0.022440968 -0.023356877 -0.027780885 -0.1209631 0.04000809 -0.08592166
-0.0203432 -0.12698272 -0.06660671 -0.1829554 -0.04603441 -0.07503724 0.008477982 0.03861977
-0.0044535487 -0.02588047 -0.0557597 -0.14690338 -0.010865701 -0.12193585 -0.060093895 -0.101680964
-0.060282525 -0.042341415 -0.11252745 -0.046746634 -0.060831957 -0.08413548 -0.046260383 -0.011110717
-0.20881511 -0.14187583 -0.11070938 -0.1017174 -0.04959155 -0.06485471 -0.0051629473 -0.12736319
-0.044188377 -0.12413579 -0.08759278 -0.1378206 -0.056417163 -0.14047411 -0.16017011 -0.08840439
-0.12621766 -0.09251701 -0.010764087 -0.0011160627 0.0034738877 -0.14240068 -0.02133083 0.004767721
-0.12794411 -0.0143690305 -0.106499396 -0.10406018 0.0026077423 -0.16235346 -0.002084923 0.07022347
-0.014677129 -0.03984985 0.00044390102 0.019304747 -0.010042241 -0.06730902 -0.11323669 -0.038056742
-0.15386844 -0.09174379 -0.10355278 -0.0040528798 -0.055523746 -0.045504782 -0.09949941 0.043181922
-0.02366265 0.004305825 -0.023992535 -0.075322635 -0.03485154 -0.04428306 -0.09200893 -0.08311021
-0.017689772 -0.14811467 -0.22728422 -0.114149645 -0.12848666 -0.08452717 -0.010094416 -0.08397079
-0.058679834 -0.023694623 -0.0684973 0.0094501665 -0.035244275 -0.06985829 0.009429829 -0.06042351
-0.11440988 -0.11087913 -0.15383089 0.059847187 -0.02052256 -0.02535885 -0.19041382 -0.09149461
-0.10114528 0.022430278 0.015329386 -0.081195995 -0.17929812 -0.12697102 -0.1097978 -0.1371199
-0.12316361 -0.03807531 0.020298095 0.045428034 -0.052542284 -0.019984633 -0.024399823 -0.03566707
-0.09132167 -0.078085825 -0.112365924 -0.14551616 -0.16676243 -0.12214053 -0.047790207 -0.077901356
-0.07866825 -0.015621833 -0.07907431 -0.12567627 -0.14604296 0.031188443 -0.090611614 -0.071282595
-0.08182418 0.056387074 -0.023733487 -0.017489765 0.0067671067 -0.043748565 -0.09621689 -0.047286075
00000000: 5e5b 86bd 1971 babd 78b4 79bc ab26 a6bd
00000010: 2134 f7bd f886 28bc f4f3 9dbd ef8d 01be
00000020: f8ab 40bd f956 0dbe 3b76 ddbd 498d 133c
00000030: 6024 eabc 12d4 17bc 2e43 79bd a1e1 c9bb
00000040: dc65 b5bd e850 2a3d 22b5 12be 0b6f f9bc
00000050: 3567 26bd 2a1c 92bd 9097 82bd 6970 cb39
00000060: fe6e ccbd 2774 73bd 5c25 0abe 94cd e1bc
00000070: 31a7 38bd 71ef 88bd ff79 34be 3554 cbbd
00000080: 5e5e 8fbc dad1 f13b edd3 21be c24e e3bc
00000090: 52e7 dcbc 75bc aebd 7af4 bcbd 8abe dabc
000000a0: 3aea a9bd 3040 34be 91af 16be a81f f1bd
000000b0: d4c0 1abd 6225 a9bd eb02 98bd bdc7 e7bd
000000c0: 8245 32bc 7fc8 80bd 2700 bbbd b4f6 cdbd
000000d0: 2b7c 10bd 28e0 aa3c a6f7 343b 9eec 8c3b
000000e0: 41f5 cabd 863a a3bd f401 7dbd a675 2fbd
000000f0: 9e43 43bd aa11 92bd 66a4 a6bc 16d7 f0bd
00000100: be14 00be 4a00 05be ae60 acbd 12c4 67bd
00000110: 2350 0a3c 5c7d 7cbd 4fdd 5f3d f176 e4bc
00000120: 2ff8 17bc e08b f4bd 890a 9cbd 81e3 3fbd
00000130: 1f3a 0cbd 5252 05bd d78b 10be 3dba c3bd
00000140: cace 92bd 7698 56bc 6575 88bd 0277 4cbd
00000150: 0eec 2bbe cfbd f7bc 4e3b 00be ac1d 0bbd
00000160: 58a4 b6bd 9b9c 8fbd 9873 d4bc 401b b1bd
00000170: 5ab9 7dbc 7ced 96bc 5dcd 1ebe a1a2 75bd
00000180: 9104 cabd 9bfe fc3c 7ce2 903c dda1 11bd
00000190: 4bb2 d8bd 164b 35bc e51c e9bd 9998 22be
000001a0: 721d 62bd b1a9 90bd 1fd6 b7bc ec56 bfbc
000001b0: bd94 e3bc 80bb f7bd 86df 233d b2f7 afbd
000001c0: c8a6 a6bc c207 02be 1969 88bd a958 3bbe
000001d0: 948e 3cbd 20ad 99bd 3ce7 0a3c c42f 1e3d
000001e0: 13ef 91bb 4803 d4bc 4864 64bd d76d 16be
000001f0: 0e06 32bc 81b9 f9bd 0425 76bd 1c3e d0bd
00000200: cfea 76bd 316e 2dbd cb74 e6bd 6679 3fbd
00000210: ee2a 79bd 394f acbd 877b 3dbd ba09 36bc
00000220: a1d3 55be e647 11be 99bb e2bd 3651 d0bd
00000230: 8220 4bbd 8cd2 84bd f12d a9bb 7f6b 02be
00000240: dffe 34bd e83a febd d863 b3bd d820 0dbe
00000250: af15 67bd 72d8 0fbe a203 24be 5c0d b5bd
00000260: 343f 01be 8f79 bdbd da5b 30bc da48 92ba
00000270: 2aaa 633b 7cd1 11be febd aebc 8b3a 9c3b
00000280: c803 03be 156c 6bbc 5b1c dabd 811d d5bd
00000290: a8e6 2a3b fc3f 26be 34a3 08bb 53d1 8f3d
000002a0: 5778 70bc 9939 23bd 63bb e839 fd24 9e3c
000002b0: 3688 24bc 50d9 89bd a3e8 e7bd 63e1 1bbd
000002c0: b08f 1dbe 2be4 bbbd 7b13 d4bd 05ce 84bb
000002d0: de6c 63bd 3963 3abd 59c6 cbbd 87df 303d
000002e0: 2cd8 c1bc e117 8d3b fe8b c4bc c142 9abd
000002f0: 7dc0 0ebd 2762 35bd 2e6f bcbd b035 aabd
00000300: 24ea 90bc 5fab 17be 32bd 68be 4ac7 e9bd
00000310: 0292 03be 951c adbd 0d63 25bc e1f8 abbd
00000320: 445a 70bd 3a1b c2bc 5048 8cbd dfd4 1a3c
00000330: 4d5c 10bd dd11 8fbd 927f 1a3c a47e 77bd
00000340: ba4f eabd 9914 e3bd d885 1dbe 5322 753d
00000350: ee1e a8bc 5dbd cfbc d7fb 42be 8761 bbbd
00000360: 4225 cfbd b4bf b73c 1b28 7b3c 164a a6bd
00000370: ed99 37be b104 02be abdd e0bd 2969 0cbe
00000380: 343d fcbd dbf4 1bbd 3148 a63c bf12 3a3d
00000390: 9436 57bd d0b6 a3bc 23e2 c7bc a217 12bd
000003a0: db06 bbbd 76eb 9fbd 1b20 e6bd 3002 15be
000003b0: c5c3 2abe d024 fabd aabf 43bd bf8a 9fbd
000003c0: d21c a1bd b7f2 7fbc b6f1 a1bd 48b1 00be
000003d0: 498c 15be e87e ff3c 9592 b9bd 9cfc 91bd
000003e0: 7093 a7bd 22f6 663d bb6c c2bc b246 8fbc
000003f0: 9bbe dd3b b231 33bd 5c0d c5bd 0baf 41bd

weight f4 [128, 256]
0.033278793 0.06024444 0.06851445 -0.027029265 -0.031834986 0.00020037583 -0.023353452 -0.025482785
-0.015381106 0.0651691 -0.01659713 0.011281642 -0.06832545 0.025595376 0.006013702 0.15576379
-0.029126938 0.019274838 -0.13440834 0.024883527 -0.07063839 0.003458262 0.030814834 -0.014297202
0.024892677 0.0002280642 -0.089412324 -0.07625259 -0.06940614 -0.070372805 0.006802156 -0.011700182
-0.11236412 -0.023928644 -0.05257682 0.03187784 0.0100916205 0.061039977 -0.081385545 -0.06231217
0.07298477 -0.040798247 -0.012859094 0.043741893 -0.059504587 0.016485844 -0.04068024 -0.029630527
-0.077266224 -0.053605262 0.000813401 0.10819845 -0.03966604 0.10683067 0.00871257 0.049239896
-0.012001974 0.069422066 0.12587692 0.04423957 -0.016199583 -0.05926484 -0.0936652 0.06408587
-0.031640958 -0.14643554 -0.057323094 0.0025403332 -0.03618934 -0.025679031 0.016799035 -0.0110053
0.029916598 0.05949865 0.06074699 -0.04325082 -0.079400264 -0.07971835 -0.023790244 -0.019553429
-0.04693387 -0.004476052 0.04164651 0.030033989 0.017607851 -0.046683624 -0.0069024987 -0.06702377
0.008799009 -0.08998576 -0.023768721 0.0013371528 0.035300165 -0.03838047 -0.002196245 0.032738842
-0.04822927 -0.03658349 -0.024555845 -0.021854946 -0.08185987 -0.016018817 -0.03306864 0.09099727
0.024523547 -0.044456095 -0.03600943 0.0010797513 0.015180886 -0.017879028 0.07013271 0.08533798
0.0155862635 0.046691187 0.0235051 0.0731864 0.0017807888 0.0335467 -0.03817216 0.07390949
-0.045201268 -0.0096860165 -0.11559781 0.011793467 0.04225498 0.009506057 0.031965833 0.02085586
0.02257107 -0.114043936 0.07046091 -0.02372064 -0.0936447 -0.104955144 0.017615056 -0.005891957
0.020105999 0.056195594 -0.07671199 -0.035570342 0.018468063 0.058989245 -0.00219298 -0.012053492
-0.02663414 -0.014133201 0.048918065 0.025734752 -0.08986907 0.060645957 -0.022450348 -0.06639487
-0.057703357 -0.05399053 -0.025457352 -0.08077276 -0.01785464 0.0224738 0.020193968 0.010973078
-0.039771583 0.036228143 -0.027527943 0.07958976 -0.032386623 -0.012164246 -4.3870597e-05 0.07432436
0.08409317 -0.020030364 0.02237608 -0.016833363 -0.013789509 0.026746497 0.017179176 0.0050096842
-0.14170554 0.0069343457 0.0589334 0.012756062 -0.0050963387 0.032775417 -0.06498619 0.015385864
-0.017334843 0.053635426 0.052245494 0.14925879 0.068965845 -0.03615192 0.02128884 -0.13862585
0.063241854 -0.052086372 0.051171176 0.028365392 -0.032045573 0.0313399 0.01576605 0.017491316
0.026432335 -0.06315423 -0.055274703 -0.030621994 -0.0050433017 -0.03672308 0.035089206 -0.010560051
-0.05316117 0.034858886 -0.051924247 -0.013741386 0.055855297 0.048831753 -0.044641063 -0.006119775
0.05174972 -0.029726477 -0.014306054 -0.041036483 -0.06541491 0.025089184 -0.063329734 -0.021686837
-0.058430173 -0.13529274 0.085701376 -0.008214935 0.038299173 0.040407274 0.10342671 -0.05421846
-0.0095761325 -0.0070560547 0.07564188 -0.009715686 0.03118081 -0.04526671 -0.035769932 -0.006061235
-0.085680075 -0.009940332 -0.008025743 -0.101636864 -0.051280912 0.033580806 -0.09888454 -0.017189613
0.07580628 0.041559406 -0.062890425 -0.026162144 -0.052004907 0.059886977 0.03251184 -0.031242676
00000000: 584f 083d e0c2 763d 4e51 8c3d 7a6c ddbc
00000010: 6765 02bd fa1b 5239 bd4f bfbc 46c1 d0bc
00000020: 0901 7cbc 6177 853d b4f6 87bc a3d6 383c
00000030: 37ee 8bbd 65ad d13c 970e c53b 8b80 1f3e
00000040: 9e9b eebc 44e6 9d3c 57a2 09be 8ad8 cb3c
00000050: dcaa 90bd 02a4 623b 646f fc3c d03e 6abc
00000060: baeb cb3c 8424 6f39 cf1d b7bd 512a 9cbd
00000070: ce24 8ebd 9e1f 90bd 9fe4 de3b 1fb2 3fbc
00000080: 291f e6bd 0106 c4bc cb5a 57bd 5792 023d
00000090: 5357 253c 0e05 7a3d 77ad a6bd 0c3b 7fbd
000000a0: 0a79 953d 101c 27bd f3ae 52bc b32a 333d
000000b0: 15bb 73bd 520d 873c 53a0 26bd b8bb f2bc
000000c0: c13d 9ebd 3191 5bbd 6b3a 553a 2697 dd3d
000000d0: dc78 22bd 0aca da3d 2bbf 0e3c c6af 493d
000000e0: eda3 44bc 282d 8e3d e1e5 003e 8d34 353d
000000f0: fdb4 84bc b0bf 72bd 8ad3 bfbd 743f 833d
00000100: f399 01bd 33f3 15be 9fcb 6abd b87b 263b
00000110: 463b 14bd d55c d2bc 219e 893c 934f 34bc
00000120: a713 f53c dbb4 733d d6d1 783d c627 31bd
00000130: 9b9c a2bd 6043 a3bd c2e3 c2bc 832e a0bc
00000140: bb3d 40bd d8ab 92bb 8895 2a3d d709 f63c
00000150: 573e 903c 5437 3fbd 5b2e e2bb c243 89bd
00000160: b829 103c 744a b8bd 9fb6 c2bc 6743 af3a
00000170: e896 103d d734 1dbd e0ee 0fbb 2a19 063d
00000180: 0e8c 45bd 92d8 15bd 5729 c9bc 2509 b3bc
00000190: 26a6 a7bd e539 83bc fb72 07bd c75c ba3d
000001a0: 9be5 c83c 9817 36bd a07e 13bd 7186 8d3a
000001b0: 40b9 783c 0a77 92bc bda1 8f3d aec5 ae3d
000001c0: 875d 7f3c 423f 3f3d c48d c03c c0e2 953d
000001d0: 5b69 e93a 4468 093d 695a 1cbd dc5d 973d
000001e0: f724 39bd 19b2 1ebc 8bbe ecbd 6339 413c
000001f0: 8f13 2d3d 4bbf 1b3c 9bee 023d e9d9 aa3c
00000200: f7e6 b83c de8f e9bd cf4d 903d ca51 c2bc
00000210: cbc8 bfbd b9f2 d6bd 734d 903c 5111 c1bb
00000220: 56b5 a43c 5a2d 663d 2d1b 9dbd 35b2 11bd
00000230: 564a 973c b59e 713d 19b8 0fbb 027c 45bc
00000240: d72f dabc f18e 67bc 4f5e 483d b0d1 d23c
00000250: 460d b8bd e567 783d cbe9 b7bc 09fa 87bd
00000260: 5b5a 6cbd 2d25 5dbd f08b d0bc 306c a5bd
00000270: e543 92bc fa1a b83c d26d a53c 6dc8 333c
00000280: 87e7 22bd f663 143d 4882 e1bc f5ff a23d
00000290: d6a7 04bd 8c4c 47bc b201 38b8 5f37 983d
000002a0: 0a39 ac3d b816 a4bc 0a4e b73c 1fe6 89bc
000002b0: 65ed 61bc 781b db3c 58bb 8c3c 4728 a43b
000002c0: 421b 11be 8239 e33b 2664 713d cdfe 503c
000002d0: 30ff a6bb 843f 063d 7b17 85bd fe14 7c3c
000002e0: cd01 8ebc d2b0 5b3d 5fff 553d 4cd7 183e
000002f0: f73d 8d3d 0914 14bd ef65 ae3c eff3 0dbe
00000300: f284 813d 8558 55bd de98 513d 8a5e e83c
00000310: 3842 03bd 445e 003d ce27 813c f349 8f3c
00000320: a088 d83c 0157 81bd ba67 62bd fada fabc
00000330: 4842 a5bb f16a 16bd b3b9 0f3d 1004 2dbc
00000340: 87bf 59bd 31c8 0e3d 85ae 54bd 8d23 61bc
00000350: 86c8 643d ce03 483d 8cd9 36bd 6588 c8bb
00000360: 84f7 533d f184 f3bc f163 6abc df15 28bd
00000370: 41f8 85bd d587 cd3c 05b3 81bd 98a8 b1bc
00000380: 7a54 6fbd 2e8a 0abe 3484 af3d ef97 06bc
00000390: 98df 1c3d 1982 253d 62d1 d33d 2d14 5ebd
000003a0: 36e5 1cbc 7a36 e7bb 21ea 9a3d 8a2e 1fbc
000003b0: e66e ff3c 9669 39bd 7e83 12bd 539d c6bb
000003c0: 0979 afbd c6dc 22bc 687e 03bc fd26 d0bd
000003d0: ef0b 52bd 078c 093d fa83 cabd 3bd1 8cbc
000003e0: 5340 9b3d 323a 2a3d b2cc 80bd fe51 d6bc
000003f0: 1903 55bd 0c4c 753d 232b 053d a4f0 ffbc

bias f4 [128]
-0.0069384626 -0.06173487 -0.07254336 -0.069858275 -0.020441342 -0.10279609 -0.029928906 0.08015688
0.022356844 -0.033226956 0.008967326 0.0068531944 -0.089223385 -0.094269074 0.015807288 -0.07370374
-0.059088867 -0.011406386 -0.11112353 -0.016411515 0.014065471 -0.03720898 0.016861198 -0.10255244
0.099078655 -0.04383061 -0.07296378 0.018999347 -0.07884364 -0.017840607 -0.07374146 -0.06609979
-0.017384281 -0.053415913 -0.038365833 -0.0590192 -0.09568207 -0.049557652 -0.021462472 -0.116233505
0.01366189 -0.12705395 0.0057258466 -0.09144422 -0.013012407 -0.00805863 -0.09288746 -0.070637904
-0.13019496 -0.01605826 -0.060623594 -0.09469964 -0.0596742 -0.0011768772 -0.12058112 -0.07729805
0.021280399 -0.062079404 -0.08666483 -0.062129524 -0.07562695 -0.045239907 -0.08101571 -0.064203724
-0.067199424 -0.039613854 0.051600102 -0.020190421 -0.016338956 -0.056530543 -0.0667134 -0.055438496
-0.043734252 0.026744902 0.031645473 -0.108917005 -0.015724206 -0.013934489 -0.068400934 -0.045446973
-0.064481534 0.031500433 -0.014546118 -0.061275836 -0.07177992 -0.09082239 -0.104083836 -0.06408096
-0.024011299 -0.005881576 -0.06530827 0.010039065 -0.08805163 -0.016263448 -0.19211332 0.050849494
-0.052308865 -0.07850455 -0.033624135 -0.14640427 -0.0049311672 0.04658864 -0.025534675 0.016767265
-0.081097424 -0.019954842 -0.032643642 0.009176007 -0.0132929925 0.011105162 -0.0073746974 -0.028781513
-0.010749783 -0.032921966 -0.046881933 -0.01467026 -0.07210247 0.011111276 -0.072486185 -0.033886008
0.028989127 -0.072052054 -0.010278802 -0.006773422 -0.12859176 -0.055447113 -0.11779422 -0.052439854
00000000: 0b5c e3bb b4dd 7cbd 9d91 94bd db11 8fbd
00000010: 9a74 a7bc c286 d2bd 772d f5bc 4a29 a43d
00000020: b325 b73c fd18 08bd b1eb 123c c390 e03b
00000030: c0ba b6bd 2510 c1bd 497e 813c fdf1 96bd
00000040: 2b07 72bd dae1 3abc bc94 e3bd 7171 86bc
00000050: dc72 663c 7268 18bd 7f20 8a3c 0307 d2bd
00000060: c0e9 ca3d ba87 33bd 096e 95bd 85a4 9b3c
00000070: c678 a1bd 7726 92bc c305 97bd 545f 87bd
00000080: 7b69 8ebc a5ca 5abd 7e25 1dbd 1ebe 71bd
00000090: f6f4 c3bd f7fc 4abd 11d2 afbc d50b eebd
000000a0: 1fd6 5f3c 6e1a 02be e29f bb3b 1b47 bbbd
000000b0: fe31 55bc 5808 04bc c83b bebd 9baa 90bd
000000c0: d451 05be 9d8c 83bc 7250 78bd e3f1 c1bd
000000d0: ef6c 74bd 7241 9aba 3cf3 f6bd 714e 9ebd
000000e0: 3b54 ae3c f946 7ebd 557d b1bd 877b 7ebd
000000f0: 4de2 9abd 7b4d 39bd 91eb a5bd 3e7d 83bd
00000100: da9f 89bd 2342 22bd a15a 533d 6266 a5bc
00000110: 46d9 85bc 928c 67bd 09a1 88bd 7a13 63bd
00000120: b022 33bd 2018 db3c af9e 013d e10f dfbd
00000130: 0dd0 80bc 7c4d 64bc ca15 8cbd 9b26 3abd
00000140: e50e 84bd 9906 013d d752 6ebc 5ffc 7abd
00000150: 5a01 93bd 1701 babd e829 d5bd e13c 83bd
00000160: 58b3 c4bc 3cba c0bb 58c0 85bd e47a 243c
00000170: 6a54 b4bd ec3a 85bc 5bb9 44be 8f47 503d
00000180: d241 56bd fec6 a0bd 76b9 09bd 00eb 15be
00000190: a195 a1bb bbd3 3e3d 182e d1bc 815b 893c
000001a0: 6816 a6bd 5678 a3bc 57b5 05bd f656 163c
000001b0: daca 59bc 6df2 353c 72a7 f1bb 35c7 ebbc
000001c0: dc1f 30bc 2fd9 06bd 4507 40bd 885b 70bc
000001d0: 76aa 93bd 120c 363c a373 94bd 0ecc 0abd
000001e0: 9b7a ed3c 0790 93bd 6c68 28bc 95f3 ddbb
000001f0: 8fad 03be 831c 63bd 193e f1bd 2ccb 56bd

weight f4 [12, 128]
-0.020430861 -0.027894761 -0.022166833 0.005962757 0.08999158 0.030943716 -0.0034393773 -0.021306047
0.0054599727 0.08371425 -0.012071753 0.034351073 -0.028474515 -0.014340304 -0.028180087 -0.0017508371
-0.01565677 -0.00064805633 -0.04264585 0.04018065 -0.039619453 -0.053747416 -0.03194799 0.006957217
-0.006398193 0.014251495 0.057670332 -0.0051960214 -0.008456344 -0.02089273 -0.049913295 0.0073083495
-0.009228608 0.01601238 -0.04012394 0.029405868 -0.024854233 -0.034453712 0.013718796 -0.057500772
-0.010047182 -0.046768136 -0.010752176 -0.013271627 0.032546367 0.022868969 -0.033242278 -0.010835844
-0.006833198 0.042038202 0.009985444 0.035468977 0.029111708 0.017670749 0.0028896471 0.02301992
-0.03706894 -0.0030605996 -0.007742762 0.046278734 0.038633503 0.008456929 -0.041739136 -0.06734832
0.002018303 -0.002832313 0.06637656 -0.01611857 -0.026217977 0.006596398 -0.017069476 -0.03624383
-0.048655756 -0.07485998 0.011077282 0.027062083 -0.016767347 0.054659314 0.0044229026 0.04520972
0.014602457 -0.030621037 0.044763576 -0.006286132 -0.023487927 -0.02988446 -0.063816585 0.028036885
-0.0061981142 0.033665087 0.029669512 0.053867783 -0.056483157 -0.02333486 0.060800865 0.100787275
-0.0020251893 -0.0057286643 -0.02867881 -0.008622717 0.0014144426 -0.014755922 0.08354212 -0.023330268
-0.033015534 -0.02966683 0.012278742 -0.026823461 -0.051142965 -0.006550955 0.055139158 -0.06785762
-0.041919816 -0.018232618 -0.037922002 -0.006870003 0.0021494683 -0.009862456 -0.17640913 0.038585566
-0.05504693 -0.072639294 -0.026098313 0.033492785 -0.015291423 0.0219965 0.0052010217 -0.026060648
-0.030238403 -0.04263543 0.013166924 0.032172255 0.06926648 -0.007575659 -0.009755614 0.13482529
-0.026572159 -0.034110382 0.0179253 0.026510235 0.009890184 0.06913539 0.0023515737 -0.05812822
-0.06547012 0.049887087 0.05015936 0.010716116 -0.042838622 0.021182477 0.07176394 -0.04626236
0.03848187 0.018703518 0.06706481 -0.037199464 -0.06130707 -0.01474837 -0.036370426 0.023268756
0.013116628 -0.01557512 -0.0019764532 0.0340814 0.025340091 0.009395998 -0.023713846 -0.03402779
-0.0151527915 0.041593883 -0.016616857 0.15929177 0.085860185 0.02466708 0.051954485 0.032333296
0.07541102 0.06688945 0.066169344 0.035379596 0.006500299 0.06943133 -0.027855376 0.0023870098
0.03164986 -0.0033291664 -0.003918008 0.036552526 0.06410777 -0.060251333 -0.0982165 -0.0006794383
-0.15538763 -0.065319225 -0.05406444 -0.04342183 0.033142634 0.010168712 -0.015055192 0.03652927
-0.048676696 -0.03454871 -0.0038998327 -0.050767213 -0.004750976 -0.01521532 0.040359218 0.012975739
0.0047550425 0.033744857 -0.02448416 0.049413677 -0.070884585 0.02893581 0.038804602 -0.005614566
-0.024516225 -0.040222082 0.07082691 -0.042190313 -0.10722225 -0.0063527403 0.074958175 -0.073237
0.021871522 -0.010309853 -0.0154951345 0.11094522 -0.025803426 -0.03324577 0.023296814 0.082130075
0.014116539 -0.035885636 -0.024685193 0.00855925 0.0025940917 -0.01306163 -0.04806338 -0.01560777
-0.05983728 -0.07954959 -0.07360196 0.10021157 0.024383513 -0.02794037 -0.031116597 0.011206645
0.058364276 -0.04023569 0.042944767 -0.028797084 0.0052384995 0.081211306 0.008478021 -0.060146395
00000000: 9f5e a7bc 8e83 e4bc 3897 b5bc 3b63 c33b
00000010: 814d b83d ad7d fd3c 2d67 61bb 058a aebc
00000020: 92e9 b23b 6072 ab3d 9ac8 45bc b6b3 0c3d
00000030: 6343 e9bc 98f3 6abc edd9 e6bc 587c e5ba
00000040: a042 80bc 53e2 29ba 6aad 2ebd 7794 243d
00000050: 0248 22bd 4026 5cbd e5db 02bd 5ef9 e33b
00000060: efa7 d1bb 1a7f 693c ba37 6c3d 6343 aabb
00000070: 7a8c 0abc 3b27 abbc e271 4cbd e17a ef3b
00000080: 9633 17bc 652c 833c 0059 24bd 93e4 f03c
00000090: 1b9b cbbc 561f 0dbd cdc4 603c ee85 6bbd
000000a0: f09c 24bc f28f 3fbd e529 30bc 3d71 59bc
000000b0: 574f 053d b457 bb3c 0e29 08bd d388 31bc
000000c0: 05e9 dfbb 4030 2c3d fd99 233c eb47 113d
000000d0: ad7b ee3c 3fc2 903c 3c60 3d3b 4594 bc3c
000000e0: 9ad5 17bd 5794 48bb ffb6 fdbb c58e 3d3d
000000f0: 2a3e 1e3d ee8e 0a3c a8f6 2abd eaed 89bd
00000100: 8145 043b 549e 39bb 6ff0 873d 170b 84bc
00000110: 15c7 d6bc 9926 d83b 49d5 8bbc 6974 14bd
00000120: 424b 47bd 3050 99bd 7d7d 353c 4db1 dd3c
00000130: ad5b 89bc 72e2 5f3d ffed 903b d42d 393d
00000140: 253f 6f3c f8d8 fabc 035a 373d e6fb cdbb
00000150: c169 c0bc 41d0 f4bc 45b2 82bd 9cad e53c
00000160: 8d19 cbbb 67e4 093d 7a0d f33c 77a4 5c3d
00000170: e25a 67bd c028 bfbc 540a 793d 8f69 ce3d
00000180: 0ab9 04bb 85b7 bbbb d3ef eabc 4c46 0dbc
00000190: d164 b93a d3c2 71bc 2218 ab3d 1e1f bfbc
000001a0: 4c3b 07bd da07 f3bc c72c 493c e0bc dbbc
000001b0: 497b 51bd 65a9 d6bb 99d9 613d f0f8 8abd
000001c0: 1db4 2bbd 925c 95bc 1a54 1bbd c31d e1bb
000001d0: 18de 0c3b 2396 21bc 98a4 34be e60b 1e3d
000001e0: e478 61bd e9c3 94bd 21cc d5bc bb2f 093d
000001f0: e088 7abc 0132 b43c 556d aa3b 247d d5bc
00000200: 87b6 f7bc 7da2 2ebd 15ba 573c 0ec7 033d
00000210: 96db 8d3d 3c3d f8bb 03d6 1fbc a40f 0a3e
00000220: dbad d9bc 54b7 0bbd 14d8 923c fe2b d93c
00000230: 700a 223c db96 8d3d dc1c 1a3b db17 6ebd
00000240: 3315 86bd 6756 4c3d e773 4d3d a692 2f3c
00000250: 8d77 2fbd e086 ad3c f9f8 923d 9a7d 3dbd
00000260: 2a9f 1d3d 1f38 993c 4659 893d 775e 18bd
00000270: 1f1d 7bbd 26a3 71bc 28f9 14bd 1e9e be3c
00000280: 20e7 563c ca2e 7fbc 6287 01bb f098 0b3d
00000290: 0696 cf3c acf1 193c 8a43 c2bc b960 0bbd
000002a0: 6a43 78bc 595e 2a3d 1320 88bc 621d 233e
000002b0: 77d7 af3d 9e12 ca3c 3ace 543d eb6f 043d
000002c0: 1871 9a3d 56fd 883d cb83 873d 32ea 103d
000002d0: 7600 d53b 0332 8e3d f530 e4bc 616f 1c3b
000002e0: 49a3 013d 252e 5abb a262 80bb 1ab8 153d
000002f0: ef4a 833d 1aca 76bd bb25 c9bd 551c 32ba
00000300: ef1d 1fbe 16c6 85bd ad72 5dbd 17db 31bd
00000310: 92c0 073d ab9a 263c 0daa 76bc b79f 153d
00000320: 3761 47bd f382 0dbd 5694 7fbb 48f1 4fbd
00000330: 13ae 9bbb ad49 79bc b54f 253d 3298 543c
00000340: 30d0 9b3b 0c38 0a3d 0193 c8bc ff65 4a3d
00000350: f02b 91bd cb0a ed3c 93f1 1e3d 65fa b7bb
00000360: 40d6 c8bc e9bf 24bd b30d 913d c0cf 2cbd
00000370: 5797 dbbd a62a d0bb ac83 993d 48fd 95bd
00000380: e82b b33c a8ea 28bc 4edf 7dbc 3f37 e33d
00000390: b561 d3bc b72c 08bd f6d8 be3c d033 a83d
000003a0: 0e49 673c d1fc 12bd 9a38 cabc 193c 0c3c
000003b0: a301 2a3b 7200 56bc 1bde 44bd bbb7 7fbc
000003c0: f017 75bd e5ea a2bd a0bc 96bd b93b cd3d
000003d0: efbf c73c 34e3 e4bc 3ce8 febc 139c 373c
000003e0: 610f 6f3d 2ece 24bd dae6 2f3d dde7 ebbc
000003f0: b8a7 ab3b 1d52 a63d 66e7 0a3c 115c 76bd

bias f4 [12]
0.023077296 0.018525783 -0.01267552 0.120188095 -0.041269194 -0.16949748 -0.03847636 0.15926166
-0.03839758 0.015719287 0.19171177 -0.08503583
00000000: 990c bd3c 62c3 973c fcac 4fbc 2d25 f63d
00000010: e309 29bd bf90 2dbe 6399 1dbd 7d15 233e
00000020: c846 1dbd bcc5 803c 1750 443e 4427 aebd
